code/config/neuralnets/CNN_Analog-Readout_Version-6.1.0.tflite (tflite, 315584 bytes, 14 tensors)

sequential/batch_normalization/FusedBatchNormV3_add_param f4 [3]
00000000: ca3a 3dbf 53fa 0abf 466c f2be
-0.7391783 -0.54288214 -0.4734823

sequential/batch_normalization/FusedBatchNormV3_mul_0_param f4 [3]
00000000: 7922 a63b d55d 853b 0441 613b
0.0050700274 0.0040700235 0.0034371028

sequential/conv2d/Conv2D/ReadVariableOp f4 [64, 5, 5, 3]
00000000: 20de 84bd 7f29 49bd 569b 89bb c964 973d
00000010: 073a 833c 466c cc3c 39d6 e63c 2bec eabd
00000020: e672 e2bd 5cd8 ce3c 9980 2ebd 87c7 a3bd
00000030: fd3f 4d3d 8e6f c4bd 7659 c0bd b9f4 0fbe
00000040: 834c d5bd 9f6d 87bd 8e89 28bd a300 a23d
00000050: eef8 d43d 11bc 9a3d 835b b03d df04 ffbb
00000060: 7829 11bc 08a2 9abd 4378 f0bc 584d 9abc
00000070: b634 82bd b067 ccbd 8956 12be 2268 a7bd
00000080: 5dcd 523c 045f 72bd 5406 723d 0c00 703c
00000090: 17f9 643e c432 523d e82f 5b3d 45eb fb3c
000000a0: b853 60bb 7114 ecbc a080 01bd a344 d5bd
000000b0: c8fd b7bc b718 19be 2078 80ba e842 c53c
000000c0: 0089 9ebd ce93 bd3d e154 8c3d 9b72 8e3d
000000d0: c775 d93d 75c5 383d fcfa aabc 5dc3 21bc
000000e0: 5eb9 65bd a00c 6bba d44d 603c 4dad 99bc
000000f0: 474b 2ebe 4a7a db3d e874 ec3d 358a 1dbe
00000100: a186 993d 5865 e5bb b012 42bc ac9a dd3d
00000110: f6d9 a53c f3db 1b3d d41a 0a3d ee1b b13a
00000120: 74ab cfbb 0d3a d3bb 923d a93d cc3e 87bd
00000130: 5729 07be 318f 82bd fef2 ae3d f0a1 1a3e
00000140: 516e 163e 754b 2c3d 571f 753d 6606 083d
00000150: fa93 02be 7d63 cbbd 1488 e6bd 926b 2abe
00000160: 17a0 9abd 609a 27be 71f2 a3bd a608 e9bd
00000170: 1aa6 bdbd 8a5a 89bd a372 a4bc 5263 efbd
00000180: da85 033d d189 153e 2b3f 253e d863 09bc
00000190: 65c5 b03d 9d10 bd3b d4da 593d da70 e53d
000001a0: 8655 ec3d 2a03 003e e58b 61bd 7246 193c
000001b0: 8300 07bd e323 f5bd 138e a9bd cce3 e73c
000001c0: b6a6 db3d bcee a23d 299b e23d 43b2 dd3d
000001d0: bc49 863d 41de 4cbd a4b4 e83c 1657 bc3c
000001e0: c6f6 eb3c c401 1ebe 4915 a1bd 2213 393d
000001f0: 0cd3 0cbd 5f28 82bd 05e3 963d 88cf b839
00000200: 9614 54bc 85aa 5c3c 8fb3 06bd 61ca b03c
00000210: ac14 c33a 09e5 1dbc a3e8 60bd a26d 2cbc
00000220: 724a a7bc 6bb1 5abd 7161 033e 0016 56bc
00000230: aa9a b7bc be0e 63bd 8d90 e5bc bf37 e3bc
00000240: c6a8 ccbd cc21 78bd 3a42 84bc 8a3a f63c
00000250: 567e ae3c eb57 bf3c 5e26 9dbd 8719 d8bd
00000260: dd85 cd3c b017 48bd 089d 7ebd 1363 8e3d
00000270: 67ea 7cbd a655 723d 6592 043e 057f 3dbd
00000280: 7f26 b03d 81d1 b23c e136 e3bd e4dc 0e3e
00000290: 17d9 c73d 4572 083d d6d1 4a3a dd13 a23d
000002a0: 268b 39bb 1ef6 ab3d 7844 a63d af5b 923d
000002b0: 1b0a 553d 64a6 5c3d 3c24 fdbd 7b9d 90bc
000002c0: 5aa7 bdbc 4f28 22bd c6fb d63d 4741 143d
000002d0: d2a2 46bd 816d 083d b9d5 9f3d 8aae 253c
000002e0: ddf9 6f3d 9a7c 033e fb5a dcbc 6f8e 923b
000002f0: 7669 e13c b70a 78bc 952c 77bc b8c5 23bd
00000300: 68d4 dc3c eb6d 143d 6a18 f03c e802 5bbc
00000310: c9ac ed3d 6cd6 043e 208c 073c 6870 e13c
00000320: dd1a f9bc e465 67bd 8baa aabd 094e f9bc
00000330: 8b92 fa3c 0109 09be e6bd fcbc 5970 753d
00000340: dce4 bdbd 6fe7 cebd cb31 0ebc 5b4c 333e
00000350: 2c49 213e b216 0fbd d0e5 c6bc 501d 9e3b
00000360: 447f ddbc 9599 26be 2cfe 33be f928 a53c
00000370: 4325 6cbe d33e 21be b07c bbb8 bfbd dbbd
00000380: 3650 eebd aeed a5bc 5c15 2e3d 9d3b 303d
00000390: 8fbb 26bd 489d b93c dba3 313d f41d 46bc
000003a0: 5693 173c 3865 743d 4340 80bd 7226 9abd
000003b0: aaee 96bc f6a3 8a3a f94f 4f3d 44c2 0d3e
000003c0: e6ea 80bc 9f43 2bbd 4f12 ccbb e0fd 9dbd
000003d0: 05b1 0b3d f27d 213d fcb3 03bc 037b 83bd
000003e0: f3a7 08bd 0a1c 44bd 17f4 62bc 03cb 873d
000003f0: 5105 86bd d6e3 fbbd 8af7 81bd 8064 2dbe
-0.064876795 -0.04911184 -0.0041994257 0.0739227 0.01601888 0.024953973 0.028178321 -0.11470827
-0.110570714 0.025249653 -0.04260311 -0.07997041 0.050109852 -0.0959159 -0.09392063 -0.14058198
-0.10414984 -0.066127054 -0.041146807 0.07910278 0.10399042 0.07555402 0.086112045 -0.007782563
-0.008859985 -0.07550436 -0.02935422 -0.018835708 -0.0635771 -0.09980714 -0.14290823 -0.08174159
0.012866345 -0.059172645 0.059088066 0.014648449 0.22360645 0.051317945 0.053512484 0.030751834
-0.0034229588 -0.028818341 -0.031616807 -0.10413482 -0.02245988 -0.14950834 -0.0009801425 0.024079755
-0.077409744 0.09256707 0.06852127 0.06955453 0.10618167 0.045110185 -0.020871632 -0.009873238
-0.056084983 -0.000896642 0.013690431 -0.018759394 -0.17020904 0.10716684 0.115457356 -0.15384753
0.074963816 -0.0070006065 -0.011845276 0.10820517 0.020245533 0.038051557 0.03371699 0.0013512352
-0.0063375775 -0.006446129 0.08263697 -0.066037744 -0.13199364 -0.06374968 0.08542441 0.15100837
0.1469052 0.04206415 0.05984434 0.033209227 -0.12751761 -0.09931085 -0.112564236 -0.16642597
-0.07550066 -0.16367483 -0.080052264 -0.11378603 -0.09260197 -0.06706722 -0.020074194 -0.11688866
0.032110073 0.14603354 0.16137378 -0.008385621 0.086314 0.0057698027 0.053187206 0.11203165
0.1153975 0.12501207 -0.055065054 0.009355174 -0.032959472 -0.119697355 -0.08279052 0.028306864
0.10725157 0.07955691 0.11064751 0.10825016 0.065570325 -0.050016645 0.028406449 0.022990745
0.028804194 -0.15430361 -0.07865388 0.045184262 -0.034380957 -0.063553564 0.07367519 0.00035249838
-0.012944361 0.013468389 -0.032886084 0.021580877 0.001488348 -0.009637126 -0.05490936 -0.010524185
-0.02042124 -0.053391855 0.1283014 -0.013066769 -0.022412617 -0.05543398 -0.028023029 -0.027736543
-0.099931285 -0.060579106 -0.01614486 0.03005721 0.021300476 0.023357352 -0.076733336 -0.10551744
0.025088245 -0.048850715 -0.062161475 0.06952491 -0.06174698 0.059163712 0.1294647 -0.046263713
0.086010925 0.021828415 -0.11094452 0.1395145 0.097582035 0.0333121 0.00077369565 0.07913945
-0.0028311699 0.083965525 0.08118528 0.071463935 0.05201159 0.05386962 -0.12360427 -0.017653218
-0.023151089 -0.039589223 0.10497241 0.036195066 -0.04849512 0.033307556 0.07804436 0.010112414
0.058587898 0.128405 -0.026898852 0.004472546 0.027516108 -0.015139273 -0.015086313 -0.03998348
0.026956752 0.03623764 0.029308517 -0.013367392 0.11605222 0.1297242 0.0082731545 0.02751942
-0.030408317 -0.056493655 -0.0833331 -0.030432718 0.030587455 -0.13382341 -0.03085227 0.059921596
-0.09272167 -0.10102736 -0.008678864 0.17509596 0.15750569 -0.034933753 -0.024279505 0.0048252717
-0.027038224 -0.16269524 -0.17577428 0.020161139 -0.23061089 -0.15746622 -8.94008e-05 -0.107295506
-0.11636393 -0.020254936 0.04250084 0.0430256 -0.040706214 0.022658005 0.043369155 -0.012092102
0.009251436 0.059666842 -0.06262257 -0.07526864 -0.01842435 0.0010577429 0.050613377 0.13843638
-0.015737008 -0.041812535 -0.0062277685 -0.077144384 0.034104366 0.03942675 -0.008038517 -0.06419947
-0.033363294 -0.047878303 -0.013852141 0.06630518 -0.06543983 -0.12299316 -0.063460425 -0.16932869

sequential/conv2d/Conv2D_bias f4 [64]
00000000: e632 4fbe a137 4abe da99 3dbe ebd1 e0bd
00000010: 210b 17be ad00 27be 00fb 09be f85c 3cbe
00000020: fb99 0cbe 166f cdbd 96ce d1bd 78f3 27be
00000030: fa0b 6ebd fa9f 20be 5fa5 07be 2d1e 1ebe
00000040: 6071 10be a465 02be adb4 0cbe 9475 dabd
00000050: 6c5d adbd 901f b8bd 8dbf 49bd 931b 0abe
00000060: 04a9 98bd f2ba 92bd db8e bfbd e7e4 fdbd
00000070: 116b b9bd f0cf 07be 37b2 07be 986d d9bd
00000080: 6c85 06be ac5e 19be d927 2fbe 8722 5ebe
00000090: 1107 9ebd 7d4c 28be e4f1 19be a0b2 07be
000000a0: ceed c5bd af41 32be e8a2 01be 62d6 00be
000000b0: e18c 1abe b8b6 58be 6064 c8bd c5dd 16be
000000c0: 5401 e8bd 2e27 cabd 98d4 38be d9c9 c7bd
000000d0: ec25 12be aa08 18be 9d21 f3bd 1c1f acbd
000000e0: 9f3a 01be 632d c9bd 24e1 26be 6a61 41bd
000000f0: fdd0 87bd 7ba9 2bbd dcb4 1abe cc5a 0abe
-0.2023426 -0.19747783 -0.18515721 -0.10977539 -0.14750339 -0.16308852 -0.13474655 -0.1839484
-0.13730614 -0.100309536 -0.10244481 -0.1640147 -0.05811689 -0.15686026 -0.13246678 -0.15441199
-0.14105749 -0.12734085 -0.13740797 -0.106669575 -0.084650844 -0.08990395 -0.049254943 -0.13487081
-0.07454112 -0.07164563 -0.093534194 -0.12397175 -0.090536244 -0.13262916 -0.13251577 -0.106166065
-0.13136834 -0.1497752 -0.17105044 -0.21692859 -0.077161916 -0.16435428 -0.1503368 -0.13251734
-0.09664498 -0.17407869 -0.126598 -0.1258178 -0.15092804 -0.21163452 -0.0978477 -0.14733036
-0.11328378 -0.09870754 -0.18049848 -0.09755296 -0.14272279 -0.14847055 -0.118716456 -0.08404371
-0.12620018 -0.0982311 -0.16296822 -0.047212042 -0.06631658 -0.041909676 -0.15108055 -0.13511199

sequential/conv2d_1/Conv2D/ReadVariableOp f4 [32, 5, 5, 64]
00000000: 250c fb39 435d a93c e54b 59bd 6f7e 0f3d
00000010: 5c68 56bd 951a 2ebd aea8 313d 81e6 82bc
00000020: b423 263d 077a 3a3c 5d33 82bd 6407 fb3c
00000030: b29d 4abc 46c9 c2bc 793f 20bd 9162 4dbd
00000040: 393c 8d3c 9597 31bd 541d 67bd 0bf5 c4bc
00000050: 36eb c83c 2e72 5f3c 582b 9cbc 6f5e 90bc
00000060: 3b64 9dbc 29db 7abc d4b7 153c 4bf2 293d
00000070: a25a dd3b fb30 bcbc 2e6f 64bd 64fc 72bd
00000080: ea93 c5bc 5546 4abd 1e9c babc 2fdf 06bc
00000090: 91c8 b13c b97f d33c e15b 4abd 4523 883c
000000a0: bde8 41bc df1a 493c 3588 b43c d761 68bd
000000b0: 758d 3abd efcf c3bb 76d4 8bbd 333e fe3c
000000c0: d32f 5dbc 8ea4 d0bb 7b12 9a3c 3040 733c
000000d0: 1ddd 21bd 46e6 153d f196 51bd aa12 27bc
000000e0: edd8 1d3d e6d9 43bd 23fc 08bc 49d5 38bd
000000f0: bc6e fabc 5bc7 3cbd 78eb 58bd d962 033d
00000100: 4b56 0abd e361 2c3b ed44 f3ba e5f2 d1bc
00000110: 5377 d53c 9444 10bd fce9 5cbc 8ea0 d23c
00000120: 83d3 f9bc 6894 07bd 1730 37bd 6177 8a3c
00000130: d444 acbc 3df0 a1bc 7690 f43c 8b04 873b
00000140: a4f0 243d 9bde 7bbd 060e a2bc 7874 22bd
00000150: b06f 793c e44b d43c 9b70 fbbc d5c8 64bc
00000160: d282 d1bc 5161 efbc 3dbb 37bc ea2d cd3c
00000170: 58d4 0e3d bdd4 a33b 18f2 40bd 9f63 b13b
00000180: 2452 a13c 4329 45bd 7e21 9cbc e66d 8c3c
00000190: 2f50 9a3c 62f6 6abd 0cb8 06bc 1b4c ef3c
000001a0: 9f57 71bc 6192 673c b2b4 e7bc 5092 86bd
000001b0: f803 18bb 18cf c93c 7ed4 a0bb b736 85bc
000001c0: e651 7cbd 230c 70bd 007b 8fbd 9bb0 9abc
000001d0: 7ec4 e8bb 29dd 55bd 3612 d3bc 5af2 34bc
000001e0: 1343 c53c ee52 1abc 80c1 eebc 89c8 3e39
000001f0: e62f 07bd 94c1 5fbb d157 e33c 46f3 59bc
00000200: 3927 56bd ead4 fc3c fc77 613c a06b 053d
00000210: 2f7d 503c e068 243d a2a2 abbc cbcb 233d
00000220: 7d7d 983c 8b53 2c3d e74c 80bc eb03 8dbc
00000230: 0a1a 433d 6d8d 6abb a4cf f83c 4c57 2a3d
00000240: 62f6 adbc 1ef5 0c3d 93e7 13bc d081 5ebc
00000250: 7693 5f3c 5a6f 5fbd 2684 81bc 4f7f 4e3c
00000260: 366f ff3c da44 17bd 4e9b 06bd 5eb3 983d
00000270: 649a 823d 5bb2 22bd 958f 7f3c a112 25ba
00000280: dc7b 2dbd 88ce 873b 02a1 50bd 9b70 b4bd
00000290: bd44 5b3d 1f10 04bd 38fb f93b c249 993c
000002a0: f90b 813d a5be dfbc 19c1 e63b 43d9 92bd
000002b0: 7ba0 943c f276 bb3d 8d21 b73c 8570 20bc
000002c0: 49e5 ce3b efb5 b1bc e563 16bd e4b3 8d3d
000002d0: 4cc2 1c3c b4b6 b8bc f4e0 6e3b 3f4f c2bc
000002e0: e4b0 9ebc 9479 463d 4235 74bc e1cd 5abc
000002f0: 71ac e0bc 00d1 13bd f74e 013d 034e 343b
00000300: 0bf3 86bc 09f9 e6bc ab67 4e3c 3a3a b13d
00000310: 75dd 99bd b1f8 be3c c1db 5b3d bf1b 833d
00000320: f8d4 d33c d566 b93c c31b e73b 0a64 543d
00000330: c0c4 523c 80b9 123d 0a42 4c3d 1e8d b7bc
00000340: 0123 cd3c 595f 623d 611a fa39 803f 8f3d
00000350: 30e4 083d cea9 89bd a6ec b83d 835a 19bc
00000360: 93c0 7f3c 3569 06bd b635 ffbb ddb5 43bc
00000370: ca41 a93c e0f3 e93c d2f8 843c 295f 0bbb
00000380: 1718 42bc 5e38 29bd 66d6 94bc b2de 483d
00000390: f4a3 04bc 37f8 2a3d a603 68bd c44c e0bb
000003a0: 930d bcbd c549 d33d 44ff d73c fbf5 d83c
000003b0: 08b6 70bc 49cb babd 5b3e 0f3d fa99 a13d
000003c0: 686f e13c b9e2 adbb d351 5f3d 476f 20bd
000003d0: 447a 523c 9e71 13bc f57d efbc 6f37 ecbc
000003e0: 8042 843b 5b7a 2fbd c5e8 5bbc 868b ba3d
000003f0: db4e ed3c 9985 0dbd f118 3a3d 56b7 633d
0.000478835 0.020674353 -0.053050894 0.035032686 -0.05234562 -0.04250582 0.043373756 -0.015979053
0.040561393 0.011381633 -0.06357453 0.030643173 -0.012366699 -0.023777615 -0.039123032 -0.05014283
0.01724063 -0.04335745 -0.056424454 -0.024042627 0.02452622 0.013638062 -0.019063637 -0.017623154
-0.019212833 -0.015311041 0.009138066 0.041490834 0.006755189 -0.022972574 -0.05577009 -0.05932273
-0.024118382 -0.04938348 -0.02277952 -0.008231922 0.021702083 0.025817739 -0.04940403 0.01661838
-0.011835274 0.012274473 0.022037605 -0.056733932 -0.04554506 -0.0059757154 -0.06827633 0.031035518
-0.013500172 -0.0063672727 0.01880764 0.014846846 -0.03951751 0.03659656 -0.05116934 -0.010197321
0.038536955 -0.047815226 -0.008360895 -0.04512528 -0.03057038 -0.046088558 -0.052958935 0.03207669
-0.0337737 0.0026303462 -0.001855997 -0.025628516 0.026057875 -0.03522165 -0.013483521 0.025711324
-0.030496364 -0.033100516 -0.044723596 0.016902627 -0.021028914 -0.019767875 0.02985404 0.0041204146
0.040268555 -0.06149159 -0.019782078 -0.039661855 0.015224382 0.025915094 -0.030693343 -0.013963898
-0.025575075 -0.029221209 -0.011214075 0.025046308 0.034870476 0.0049997256 -0.04710588 0.005413487
0.019692488 -0.048135053 -0.01905894 0.017142247 0.018837063 -0.057363875 -0.008222591 0.029211095
-0.014730363 0.014134021 -0.028284404 -0.06570876 -0.0023195725 0.024634883 -0.0049081435 -0.016261442
-0.061601542 -0.058605324 -0.07005882 -0.01888304 -0.007103502 -0.052212868 -0.02576552 -0.011044109
0.024079835 -0.009419186 -0.029145002 0.00018194517 -0.033004664 -0.003414248 0.027751835 -0.01330263
-0.0522835 0.030863244 0.013761517 0.032573342 0.012725159 0.04013908 -0.020951573 0.039989274
0.018614525 0.04207186 -0.01566167 -0.017213782 0.047632255 -0.0035789863 0.030372448 0.04158716
-0.021235649 0.03441345 -0.00902738 -0.013580754 0.013645997 -0.054549553 -0.015810084 0.012603595
0.03118096 -0.036930896 -0.032862954 0.074560866 0.06377104 -0.039720874 0.0155981975 -0.00062970264
-0.04235445 0.0041444935 -0.0509348 -0.0881054 0.05353235 -0.032241937 0.0076288246 0.018711928
0.06301112 -0.027312586 0.007042062 -0.07170346 0.01814293 0.091535464 0.022354865 -0.009792452
0.006313954 -0.021693198 -0.03671636 0.06919077 0.009567808 -0.022548057 0.003645 -0.023719428
-0.019371457 0.04845579 -0.014905276 -0.013354749 -0.027425976 -0.03608799 0.031569447 0.002751232
-0.016473314 -0.028194921 0.012597959 0.08653684 -0.07512943 0.023311945 0.05367637 0.064017765
0.025858387 0.022632042 0.00705287 0.051853217 0.012864292 0.035821438 0.049867667 -0.022406157
0.025041105 0.05526671 0.0004770337 0.069945335 0.03342074 -0.06721841 0.09029512 -0.009359959
0.015609878 -0.032815177 -0.0077883853 -0.011945215 0.020661253 0.028558671 0.016231928 -0.0021266437
-0.011846564 -0.04131352 -0.01816864 0.049040504 -0.00809573 0.041740622 -0.056644104 -0.0068450887
-0.091822766 0.10316805 0.026366837 0.02648448 -0.014691837 -0.09120805 0.034971576 0.07890697
0.027518943 -0.0053065685 0.054521393 -0.039168622 0.012846533 -0.008999256 -0.029234866 -0.028835027
0.0040362477 -0.042841297 -0.013422196 0.09108643 0.028968265 -0.034551237 0.045433942 0.055594765

sequential/conv2d_1/Conv2D_bias f4 [32]
00000000: 4319 843d 806c 9d3d 58fb 463b 7a3c b6bd
00000010: 68ae 183c 4a3e 06be ec20 73bc 8603 073d
00000020: f1e0 d2bc dfd9 f4bc 9ce6 373c 85fd 8cbc
00000030: db43 a9bb 8487 0a3d 5d87 5fbc 442e 06bd
00000040: 123e 43be 77d8 42bc 1996 17bd 7759 15bc
00000050: 15e2 c13d 377b 0fbc 85fc 41bd f62a 3dbd
00000060: b86a c7bb 151f 4a3d e9de 9f3c 18ad 6e3d
00000070: e7a1 3f3c 4139 8dbc ae63 c4bd 10d2 81bc
0.06450131 0.0768671 0.0030362215 -0.08898254 0.009318925 -0.13109699 -0.014839392 0.032962345
-0.025742026 -0.029889045 0.011224415 -0.017210731 -0.0051655597 0.033820644 -0.013643113 -0.032758966
-0.19066647 -0.01189243 -0.03700838 -0.009115568 0.0946695 -0.008757404 -0.047359962 -0.04618355
-0.00608572 0.04934605 0.019515472 0.058270544 0.011696315 -0.017239215 -0.09589325 -0.015847236

sequential/conv2d_2/Conv2D/ReadVariableOp f4 [32, 3, 3, 32]
00000000: 6acc a33b c56c 883c 73cc 9ebd 4b20 84bd
00000010: 0d65 6d3d 2b7e 14bd f91c c43d 4f9b 66bd
00000020: f049 abbd d56b 14bc b633 a7bd 3eaa 7f3b
00000030: 308a 043d aa45 28bd 5c72 b13d 2658 c8bc
00000040: 9dad b9bd ae79 c93d d654 b6bd 630c 963d
00000050: acf9 473c 04dd 6fbd 3fa1 143d 4629 a53b
00000060: 8586 edbc f291 b43d 0fda 89bd cc2e d53c
00000070: 2e16 953d 8e4e 32bd c4fd 723d 9dea 38bd
00000080: 12b4 953d 9ab6 2f3e ba83 3cbc a334 91bd
00000090: 7116 15bd a423 f6bd aa31 ab3b 0689 f23c
000000a0: 808b c33d ae4d 77bc 2ba7 4abd 3198 75bd
000000b0: a86a 093c 1112 783d ed54 283d b0b7 133d
000000c0: bb52 d7bd d20f e9bc 9807 7bbc a698 943b
000000d0: 62a9 60bd 0cc9 c93c 17bd 9e3d e034 ee3d
000000e0: 145e c63d 71bd 8abb 3289 94bd b6cf 813c
000000f0: c87a 743c 4e99 76bb c4a8 afbd 4592 b93c
00000100: 07f6 29bd 80f6 043b b102 d13c 5004 81bd
00000110: c735 ab3d cc46 a53d b916 a63d 0243 bebd
00000120: b418 66bd 01e4 13bd 8647 8cbd 654a 3abd
00000130: ec31 39bc 3069 51ba 85b7 c33d 24b5 6f3d
00000140: 42fe 273d bbc7 9c3d bef8 dfbd 3923 8f3d
00000150: f6bb cb3d 1f3b bb3c b2ba 36bb 6395 a3bd
00000160: 78fd 93bc 3ea9 61bd fefb 7a3a 0d82 b2bd
00000170: 3530 463d 7045 85bd 359a 81bd 9a15 133d
00000180: 5a27 40bd 7ffc 253c c418 093b ae41 b0bd
00000190: 4c9d 2dbd 8dce 163d 844c a43d 1684 9a3c
000001a0: 9f33 7abd 4e4c 673d 2552 813c ea70 88bc
000001b0: e9b9 7c3c d62e a73d 8db7 2e3d c4ea c4bc
000001c0: 1709 8bbd da57 303d e685 50bd 83cb 9c3d
000001d0: 7ae9 a73d 1826 a63d 2c74 48bd f7cd 813c
000001e0: bc08 96bd 63c8 a83d 7993 bd3d 05e6 e3bd
000001f0: 712b ce3c 48ab f53c 8b2d 623d 0c18 a03c
00000200: bac9 6ebd 5ece 3bbd b039 52bd f7ab 38bd
00000210: 3043 64bc 7794 1cb9 7ec6 9ebd e1ff 49bc
00000220: 5178 293d 0356 bbbd 4a8b 4abd 6f29 fdbc
00000230: e126 c2bd 5f3c 963c 6804 7a3d 9b39 3abd
00000240: 0532 d5bd 76eb 79bc 8881 83bd d554 b13d
00000250: c4eb 8bba dced 92bc 8f5f 40bd 5f1c fa3d
00000260: b30f 56bc fede ab3d 88f7 573d 3dad acbc
00000270: 32c1 ecba 2602 90bd ebc2 b2bd f177 14bd
00000280: 3fe0 25bd fd69 973b c921 313d 361e 413c
00000290: 790a 1b3d a9e3 be3c 86c3 c0bc 011f 333c
000002a0: 5df1 323d 5c4e babd 1917 cbbc 638b c63d
000002b0: 6522 0f3d 21eb c7bd 76f5 6dbc 7b79 61bd
000002c0: a28a 19bc 7d5a 863d 0821 c3bb 9290 cdbd
000002d0: f07e 00bc bf54 843d f49c cfbc 3e47 983c
000002e0: 2f70 bb3d f7ba 1ebc 43b0 d3bd 74a1 b3bd
000002f0: a250 13bd 99b6 0dbd ed06 8f3c 8a95 45bd
00000300: 141e be3c 6c6b 68bc ac9d 503c ddc9 f23c
00000310: 9757 e8bc 23c4 18bd 40d4 ac3c f026 8f3d
00000320: 1b23 533d 8e2f c7bd 1237 a63d 7b9c 8f3c
00000330: 95ed 5c3d c6f5 b23c 8582 6f3d 6b05 823d
00000340: f20f 52bc 2455 6fba cf1e 003d 1b74 38bd
00000350: 2fc1 2cbc 6e6d d8bd 00b8 96bd b717 383d
00000360: 3593 4a3b 51a1 6a3d 78a6 8f3d c47f 7bbd
00000370: a80e 9c3c 456f 99bc 5cb8 c6bd 06a1 5abc
00000380: 43cc 083c b16e ae3d 0739 40bd b702 153c
00000390: 18bd a93d b0c6 b43c 1266 6b3d 7619 47bc
000003a0: c25a 1a3d 9dae 823d a53e f8ba 46e6 51bd
000003b0: 69f8 93bc ca4e 63bd d44e 79bd 2ad6 303d
000003c0: 833a 49bd 7d77 2c3d 7d86 6a3d 5bbb 15bd
000003d0: c0e8 29bc d16f 8d3c 494f a0bd 5e1e e4bd
000003e0: 145d a4bd 0287 c93c f30a 1839 3cbb 3ebd
000003f0: 4109 bb3d b970 803d af0a 41bd 6337 2d3d
0.0049987333 0.016653428 -0.07753839 -0.06451472 0.057957698 -0.036253136 0.095758386 -0.056300458
-0.08363712 -0.009058912 -0.0816416 0.0039011384 0.03235835 -0.04108206 0.086643904 -0.024456095
-0.09066317 0.09837662 -0.089029 0.07326581 0.0122055225 -0.058560386 0.03628659 0.0050403206
-0.028994808 0.08816899 -0.067310445 0.026023291 0.07279621 -0.043531947 0.05932404 -0.04514562
0.07309736 0.171595 -0.011506015 -0.07090118 -0.036398355 -0.12018517 0.0052244263 0.029606353
0.09548092 -0.015094204 -0.04947583 -0.059959594 0.008387245 0.060564104 0.041096617 0.03606385
-0.105138265 -0.028449927 -0.015321635 0.0045347987 -0.054849036 0.024632 0.0775091 0.11631179
0.09685913 -0.004234009 -0.072527304 0.015846115 0.014921851 -0.0037627998 -0.08577111 0.022652755
-0.041494396 0.0020288527 0.025513979 -0.06299651 0.083598666 0.08070144 0.08109803 -0.092901245
-0.056175902 -0.036106113 -0.068495795 -0.045481104 -0.011303406 -0.00079883914 0.09556488 0.05852236
0.041013964 0.07655283 -0.10936116 0.0698914 0.0994796 0.02285534 -0.0027882275 -0.07987478
-0.0180652 -0.055093043 0.0009574293 -0.087162115 0.048385818 -0.06507385 -0.06328241 0.035909273
-0.04691253 0.010131001 0.0020919302 -0.086062774 -0.042386338 0.036818076 0.08022407 0.018861812
-0.061084386 0.056469254 0.01578624 -0.016655404 0.015425184 0.0816323 0.042655516 -0.024037726
-0.06788843 0.04305253 -0.050908946 0.07656004 0.08198829 0.081127346 -0.048938915 0.015845282
-0.07325885 0.08241346 0.09256644 -0.11127857 0.025167199 0.0299889 0.055219214 0.019542716
-0.05829785 -0.045851104 -0.051324546 -0.045085873 -0.013932034 -0.00014932627 -0.07752703 -0.012329073
0.04137451 -0.09147265 -0.049449243 -0.030903546 -0.09480072 0.018339334 0.06103936 -0.045465093
-0.10409931 -0.015253892 -0.064211905 0.086587586 -0.0010675122 -0.017935686 -0.04696613 0.122124426
-0.013065266 0.08392142 0.0527263 -0.0210787 -0.0018062948 -0.0703166 -0.08728584 -0.036247198
-0.04049706 0.004620789 0.04324511 0.011786988 0.037851784 0.023301916 -0.023530733 0.010932685
0.043687213 -0.09096977 -0.024791287 0.09694555 0.03494491 -0.09761644 -0.0145238545 -0.055047493
-0.009371432 0.06560228 -0.0059548654 -0.1003734 -0.007842764 0.064614765 -0.025343396 0.018588658
0.09152257 -0.009688131 -0.10336354 -0.08771029 -0.03596557 -0.034597967 0.017459357 -0.048238315
0.023207702 -0.014185768 0.012732904 0.029637272 -0.028362079 -0.037296426 0.021097302 0.069898486
0.05154715 -0.09725867 0.081159726 0.01753067 0.053937513 0.02184571 0.058474082 0.0634869
-0.0128211845 -0.00091298134 0.03127938 -0.0450326 -0.010544105 -0.10567747 -0.07359314 0.04494449
0.0030910496 0.05728275 0.07014173 -0.061401144 0.019049957 -0.018729815 -0.097031325 -0.013344055
0.008349481 0.085172065 -0.046929386 0.009094886 0.0828802 0.022067398 0.05747039 -0.012152066
0.03768421 0.06380961 -0.0018939568 -0.051244996 -0.018062787 -0.05549506 -0.060866192 0.043172993
-0.049128067 0.04210614 0.057257164 -0.03655563 -0.010370433 0.017265232 -0.078276224 -0.111386046
-0.08025566 0.02460051 0.00014499929 -0.04656528 0.091326244 0.062715 -0.04712933 0.04228915

sequential/conv2d_2/Conv2D_bias f4 [32]
00000000: a69e ab3c 5df6 d53c 62c2 e6bd c991 70bd
00000010: 3718 9f3d b7f4 643d b4c9 013e c58a b63d
00000020: dfa4 273c e902 bd3d 58e7 95bd 2ed2 0bbb
00000030: 8789 ec3c d51d 70ba 781e bb3d 7c4f e03d
00000040: bc32 4f3d 7afa ecbc 9305 913c e189 513e
00000050: 5374 fb3d f143 ebbb e5f6 323d 8c72 273d
00000060: 54c2 44ba ed59 91bd f591 393d 8240 333d
00000070: 6bec 283d 1881 b83d 1886 d43c ed0d 903d
0.020949673 0.026118452 -0.11267544 -0.05873278 0.077682905 0.05589744 0.126746 0.08913187
0.010232179 0.09229071 -0.07319516 -0.0021334994 0.028874172 -0.0009159719 0.09136671 0.109526604
0.050585493 -0.02892803 0.017702853 0.20462753 0.122780465 -0.00717973 0.04369249 0.040880725
-0.0007505764 -0.0709723 0.04530521 0.04376269 0.04124109 0.09008998 0.025942847 0.07033906

sequential/dense/MatMul/ReadVariableOp/transpose f4 [128, 32]
00000000: 3116 363e 6101 493e bb67 01be bd63 18be
00000010: 477f 92bd 29be f73c 3583 31be dac5 413e
00000020: 6d33 103e d211 dd3d 71c7 3a3e 57d2 a1bd
00000030: 7ea9 d8bd 52f1 363e 3fbe 0b3e 3f41 bbbd
00000040: a927 aabd 8004 c7bb 5f63 71bd 60c5 11bd
00000050: ec75 aa3c 484b 08bd 3060 17be a93c 0fbe
00000060: cee0 8cbd 67c1 78bc d13d 7bbd d6b8 f9bd
00000070: b840 21be e7cb d7bc fffe 9fbd 3029 843d
00000080: 3017 2f3e 1f72 c33d 20a2 1b3c c805 463e
00000090: 8dce f2bd b4f6 ef3c 0361 0c3d 642b 003e
000000a0: 9617 4f3c 0ab0 d43d 360b 8abd 962a 35be
000000b0: 99b2 18be 85e2 a83d 6e89 5cbe 74ab e83c
000000c0: 58fb 85be ade8 9d3d d860 1cbe 6c0f 523d
000000d0: ecc1 323d 9bf8 72bd dc84 813c 8b26 453b
000000e0: cfa7 d13d 3260 aabc 03b1 763d 059e 833d
000000f0: e4bb ba3d 907c a7bb 3666 70be 389d 2bbe
00000100: 7dfc 503c ac24 70bd bd6c 34be 8719 093d
00000110: 917c c5bc 8cb2 24be a541 fe3d b09d 33be
00000120: c1fa 263e d5b9 bdbd e55b 283e eb5d 9fbd
00000130: f341 01be 1cd7 dc3c 3f9d 4b3c b33d 123e
00000140: a733 2abe 8838 dabd c229 16bd a96f 25bd
00000150: 2f90 5d3d 80c5 18be cd36 3e3e 0c91 f7bc
00000160: 3eeb 25be 6ab1 0c3e 8806 3cbe 4ba6 28be
00000170: b5bb 6d3d fc45 c3bd f1c1 d33d 3a0b 35be
00000180: 804d d83d 904e b13d 0ac8 483d a1ee 08be
00000190: e50d 46be f420 75bd 2a9b 44be 09a0 b63d
000001a0: 42f1 d03c 2992 39be 6305 043e 113a 95bd
000001b0: 3e4b 45be 1789 a7bc c4ef 83bd 3b24 503d
000001c0: b1a9 72ba 562a 18bd 9c01 733d 48d1 16be
000001d0: 848a 06be da18 30be 465b 723d bc55 3ebe
000001e0: 3579 36bc 0712 27be f499 3e3e e4ea 44be
000001f0: 404a 4f3c e3af 673d 0b03 d03d 8fdf 40be
00000200: acc0 af3c 2730 9dbe ac3a 083e e45c 4bbb
00000210: 9d82 c53d ba5c aa3d 8f39 ed3d 92c9 70bd
00000220: 8f79 8c3c fa9f a73d 18ce 243d b1f8 02be
00000230: f971 c6bd b7b3 6dbc 0523 163e 9d8a fd3d
00000240: be85 613e ad25 86bc 3c23 6f3d a2e6 be3d
00000250: 0948 133e 0e35 84bd 2131 483d 4b17 983c
00000260: 9c9d 11be 0ddf d73b bc3e cd3d b5b0 a2bd
00000270: 5c3e 573e 2d78 28be dac4 dabc 5757 b4bc
00000280: 9a30 d6bd d434 65be d240 d13d 8061 cbbd
00000290: 05ba 08ba 0bef 7fbc 8bb1 3cbe ad19 f6bc
000002a0: 8ef4 8f3d 8b7c 4ebd 8fb0 11bd a98f 66be
000002b0: fdac ebbd b7fa 1b3e 793b b63d 9f16 0dbd
000002c0: 25f6 17be b50d 3f3d 299e 0cbe ed61 053e
000002d0: 9810 86bd 699c 39be e018 d7bd efd8 a1bd
000002e0: dd8a 013e 7df8 463d 702e 383b 6260 7d3d
000002f0: 01b0 943d ac61 b33b 2c74 c1be 1aa4 663d
00000300: b788 59bd 90d4 da3b e98a 04bd b5ab b03d
00000310: b285 0c3d b24a 1bbe ac6b 09be d7e7 d33d
00000320: 0c57 a83d 616d 6e3d bf80 e53c 0ca8 44be
00000330: ab61 5a3d 0784 673d c034 91bd aa14 10be
00000340: d225 7cbd 32eb c73d b6c5 22be e917 ac3c
00000350: 8afd 193d bcc5 0cbe 06e0 f6bc a95f ebbd
00000360: b0dd 39be 2d57 b33d be51 f83d 8f3d b43c
00000370: e66f 27be 2780 a6bd 2a87 f7bd b114 623d
00000380: 45ea c7bc f459 433d 42d8 acbc 6b83 9abd
00000390: 9f77 f83d ce90 2abe fb30 f4bd ddd0 5bbd
000003a0: b171 14ba 2116 423d 1436 b3bd edce f03d
000003b0: 1148 a53d b44d 17be c78f f93d de8e 92bd
000003c0: e138 103e e627 0dbe eb5a 45be 4dff 923d
000003d0: 7a11 043c 1606 26be 7daf 23be 86b0 41be
000003e0: 1c50 22be 87d2 8bbd 179f 21be e134 413a
000003f0: 0700 c53d b058 1c3e bf92 06be 69bd b6bd
0.17781903 0.19629432 -0.12637226 -0.14881797 -0.071531825 0.030242043 -0.17335208 0.1892313
0.14082117 0.107944146 0.18240143 -0.07901447 -0.10579203 0.17865494 0.13646792 -0.09143304
-0.08308346 -0.0060735345 -0.05893266 -0.035588622 0.020808183 -0.03327492 -0.14782786 -0.13987984
-0.068788156 -0.015182829 -0.06133825 -0.12193458 -0.15747344 -0.026342345 -0.078123085 0.064531684
0.17098689 0.09543251 0.009499103 0.19338143 -0.11855803 0.029292442 0.034272205 0.12516552
0.012639901 0.10385139 -0.067404196 -0.17692026 -0.1491188 0.0824633 -0.215368 0.028402068
-0.26168323 0.07710395 -0.15271318 0.05128424 0.04364197 -0.05931912 0.015810423 0.0030082788
0.10237085 -0.020797823 0.060227405 0.06426624 0.091178685 -0.0051112846 -0.2347649 -0.16759193
0.01275551 -0.058628723 -0.17619605 0.03347161 -0.02410725 -0.16083735 0.124148645 -0.17540622
0.16306593 -0.0926396 0.16441305 -0.07781585 -0.12622814 0.02695804 0.012427627 0.14281349
-0.16621266 -0.10655314 -0.036660917 -0.04038969 0.054092582 -0.1491909 0.18575592 -0.03022053
-0.16203019 0.13739553 -0.18361866 -0.16469686 0.05804034 -0.09534833 0.10339726 -0.17680064
0.10561657 0.08657563 0.049018897 -0.1337228 -0.19341238 -0.05984588 -0.19199815 0.08917243
0.025505666 -0.18122162 0.1289268 -0.07286466 -0.19266984 -0.020451112 -0.06442216 0.050815802
-0.00092568534 -0.03714975 0.059327707 -0.14728272 -0.13138777 -0.1719698 0.059169076 -0.18587393
-0.011137296 -0.1631547 0.18613416 -0.19230229 0.01265198 0.056564223 0.101568304 -0.18835281
0.021454178 -0.307008 0.13303632 -0.003103071 0.09644053 0.083184674 0.11583244 -0.058785982
0.017147807 0.0818481 0.04023561 -0.1279018 -0.09689707 -0.014508179 0.14661796 0.12379954
0.22023675 -0.016375387 0.05838321 0.093213335 0.14382948 -0.06455432 0.048874978 0.018565794
-0.1422028 0.006587869 0.10021731 -0.079438604 0.21019882 -0.16452093 -0.026705194 -0.022014303
-0.10458489 -0.22383434 0.102174416 -0.09930706 -0.00052157074 -0.015620957 -0.18427102 -0.03004154
0.07029067 -0.050411742 -0.03556877 -0.2251574 -0.11507604 0.15232359 0.08898062 -0.0344454
-0.1483999 0.04664393 -0.13732208 0.13025637 -0.06546134 -0.18126072 -0.105027914 -0.07902705
0.12650628 0.04857682 0.002810385 0.061859496 0.072601326 0.00547429 -0.37783945 0.056308843
-0.053108897 0.0066781715 -0.032359038 0.086265005 0.03430719 -0.15165213 -0.1341998 0.10346954
0.08219728 0.05820978 0.028015492 -0.1920473 0.0533158 0.056522395 -0.070901394 -0.14070383
-0.061559506 0.09761657 -0.15895733 0.021007495 0.03759531 -0.13747305 -0.03013612 -0.11492855
-0.18150973 0.08756862 0.12124966 0.02200201 -0.1635128 -0.08129912 -0.120863274 0.055195514
-0.0244037 0.047693208 -0.021099214 -0.07544597 0.12132191 -0.16656801 -0.11923405 -0.053665984
-0.00056626933 0.047384385 -0.08750549 0.11758218 0.08070386 -0.14775735 0.121856265 -0.07156156
0.14084198 -0.13784751 -0.19272964 0.07177601 0.008060807 -0.16213259 -0.15984912 -0.18914995
-0.15850872 -0.06827264 -0.15783344 0.00073702453 0.09619146 0.15268207 -0.13141917 -0.08922846

sequential/dense/MatMul_bias f4 [128]
00000000: 403c 75bc 4886 723d 86ae 34bd 6555 0cbc
00000010: 6edf e8bd d878 0f3e f192 93bc 198d a6bc
00000020: b4b7 3d3e f28a 403d 3473 05bd 4f1f 153e
00000030: 777f 99ba fc33 f4bd 4d75 c13d e763 913d
00000040: 9bd7 d93d eafa 4239 45c3 b03d b2ae 4cbd
00000050: 59ed c8bd f48c b23d 0ffe 123d 6bfb 943d
00000060: 6268 bcb8 c877 6bba 3134 203d b688 a5bd
00000070: 2cc3 d33d 7a67 b3bd 41fe c83d f9b5 333e
00000080: 64e2 b73d bbf5 a33c 2815 7fbd 26d4 d83c
00000090: e6e6 d43c 0e3c ca3d b6a2 c23c 1d25 a8bb
000000a0: d4d3 c73b 3333 d83d bc63 123e 4619 963a
000000b0: a011 f93d 1c1b b5bb 6ccd 2e3d c896 e13b
000000c0: 5d48 853a 1cc2 cf3c 58fc 333c 3d38 c73d
000000d0: 696c b8bb 183b 13bd a38e 8e3d e622 2ebd
000000e0: 9c00 44bd 72e9 263d e677 293c cb21 94bc
000000f0: 5c31 8b3d 6b41 20bd c92f d3bb c165 53bd
00000100: 2cfa 9cbd 6b88 693c 2229 913d 471a 0a3e
00000110: c217 18bd e327 07bd 88d8 1f38 dfba df3d
00000120: 17da f43d 01bc d73d 9aba 633c 618d b93d
00000130: 6c12 33bd e907 003b 0ee3 5f3c 8b19 72be
00000140: ff25 a53d 7d24 c53d 0ec2 a6bd 42eb 9cbd
00000150: dc17 0f3e 5803 06be e42c 6bbd c4f5 0c3c
00000160: 0545 2ebd c013 0c3e b130 043e b0af bfbd
00000170: a135 a03d f226 493c 9f15 273c 0a3d 013e
00000180: 6833 953c 245d a53d ada5 d43d 1717 f03d
00000190: 756c e63d 2467 4c3d 1b8a 1d3e e9ac 0cbd
000001a0: 4304 ac3d 7d14 cbbd 7cc1 973d 427a 13be
000001b0: ad9f eabc 86ea f4bc eac6 debc a563 373d
000001c0: 7110 a0bd 85b9 013e 116c 123c d54a b4bd
000001d0: 5f3f 753d ca14 f23c ad93 213e 80ef 94bb
000001e0: c74e 63bd ae22 88bd 1272 48bd 67b0 883d
000001f0: d469 293e c34d 293e 5ff0 573e 900c c83d
-0.014967978 0.05921009 -0.04411175 -0.0085652815 -0.11370741 0.14010942 -0.018014403 -0.020330952
0.18527108 0.04700751 -0.03258057 0.14562725 -0.0011710961 -0.11923978 0.094462015 0.07099133
0.106368266 0.00018594755 0.08630995 -0.04997129 -0.098108955 0.08718291 0.03588682 0.07274517
-8.9839814e-05 -0.00089823874 0.039112274 -0.08082716 0.103399605 -0.08759971 0.0981412 0.17549886
0.089787275 0.020014634 -0.062276036 0.026468348 0.025989007 0.09874736 0.023759227 -0.0051313774
0.00609825 0.105566405 0.14295858 0.0011451624 0.12161565 -0.0055269133 0.042676374 0.0068844296
0.0010168661 0.025361113 0.010985456 0.097275235 -0.005628158 -0.035945028 0.069607995 -0.04251375
-0.047852144 0.040749975 0.010343527 -0.01808252 0.06796524 -0.039124887 -0.0064449054 -0.051610712
-0.07664904 0.014253716 0.070879236 0.13486587 -0.037132032 -0.032997023 3.8110215e-05 0.10924315
0.1195566 0.10533906 0.01389947 0.09060169 -0.04371874 0.0019535965 0.013664974 -0.23642556
0.08063888 0.096261 -0.08142482 -0.07662059 0.13973945 -0.13087213 -0.057415858 0.008603517
-0.04254629 0.13679409 0.129092 -0.093596816 0.07822729 0.012277352 0.010198026 0.12620941
0.018212989 0.08074406 0.10383163 0.11723154 0.11251155 0.04990305 0.15384714 -0.034344587
0.0839925 -0.09916017 0.07409951 -0.14402106 -0.028640592 -0.029896986 -0.027194459 0.044772763
-0.07815636 0.12668426 0.008936898 -0.088033356 0.05987489 0.029550929 0.1577899 -0.004545152
-0.05549505 -0.066472396 -0.04893691 0.06674271 0.16544276 0.1653357 0.21087788 0.09768021

sequential/dense_1/MatMul/ReadVariableOp/transpose f4 [64, 128]
00000000: ad3d e7bc a59c 0dbe 8068 c13d 49e2 883c
00000010: f86f 4bbe 3ad2 60bd c293 c2bd f0ee 243d
00000020: 1d3e dabd 27e4 fbbd d01c 1b3d b3a0 80bd
00000030: c2bf 203e 2276 a2bd e003 eabc 2385 243c
00000040: 87a5 afbd 9473 25bd 189f 353d 9728 e93b
00000050: f0cb a3bb 5b9f 19be c97b e13d 587e 7abe
00000060: 9b5d 00bc 0d93 f8bd 56b6 89bd b2ea efbd
00000070: 4b2d 39bd cb7a 9bbd 1ad5 7a3c c182 cd3d
00000080: a8fb 16bc 0fd7 1abe 8632 45bb f978 acbb
00000090: 10e9 7cbd b574 5e3c 9200 05be 6c64 1d3e
000000a0: 8e81 c23d c3ef 95bd aa39 ebbd 491f 2b3e
000000b0: 8d23 1a3e aa38 cf3c ffd9 73bd c0ea 003d
000000c0: e4db 203e c4fd babd 547a 6fbd 6b8e eebb
000000d0: f3e1 6fbd c8d9 08be 5afe 41be 345b c33c
000000e0: 1564 f53d e67f 81be 4ade f73d 5d44 a93d
000000f0: 8cea b43d 95ba 09bd f392 fa3d 05cb be3d
00000100: 1ff1 e2bd 01e6 463e 8793 91bd db96 a4bb
00000110: 74ef 46ba a8c5 b03d da32 963d 4617 22bb
00000120: 6aa6 ee3d 27f9 253e 3b8b febc 4260 353c
00000130: b322 27be cb13 10bd 2fa3 453d 80ce 5ebd
00000140: e1c5 a2bd 4304 cdbd dfc4 06bc 0366 75bd
00000150: 4e7c 56bd 2d8e efbd 2efe 30be 5592 663d
00000160: 4bf6 b3bc 7bd8 393d 894e 373e 48b5 a23d
00000170: 5f8b f2bd 362e 5a3d 5661 793c e740 663d
00000180: f433 e8bd 62f1 243e 2b9f 1cbd bd6c ad3d
00000190: ce11 f5bd 58f8 3dbe 650e eb3d 1e4f e33c
000001a0: 9d17 14be 41a1 0b3e c54c 58be a722 31bc
000001b0: 11e9 f23c b6a3 84bc 218b e63d 8c16 05be
000001c0: af32 20be 2c5b 7bbe fe2c 283e 0582 d63c
000001d0: e8b6 163e 82ca 37be a5f6 debd b098 103e
000001e0: 78e0 17bd d22e 91bd 953c 0e3e e402 043c
000001f0: 33e4 123c dbae 24bc b2bd ec3b 89d3 d43d
00000200: d40e 223e d4e1 4cbe 6d41 0b3e bc10 fabd
00000210: 09a1 9fbd 1fd0 093e 8766 b2bd 2993 d6bc
00000220: 184f 40be 0510 96b9 45d3 2f3b 24b8 ce3d
00000230: 0ebd 0c3e e99d dabc 4c7c 943d a5c1 ed3d
00000240: e8cb b9bd a82c 00bb b8f3 7f3c 0a64 153e
00000250: bf5c c8bd dec7 71bc 31c5 e13d c1ef b83d
00000260: 8ee9 733d aad0 f03d b487 e1bd 03c2 cd3d
00000270: 6abf 87bc 170e 8e3d 6a5d 063d 1259 053e
00000280: bccd d93d cc1e ec3d dfd6 34bd 1539 d8bd
00000290: 8495 c9bd 8028 c1bc 0481 86bd 7a32 c4bd
000002a0: 9f3c 07be 99c8 70bd f533 47be c97f 133c
000002b0: afff 113e 199b ec3d 96de f33d a379 833d
000002c0: 8d9a d3bc 65ec 96bd df8d d93d 3288 a6bd
000002d0: 1d7e 8e3d 5e70 71bd 4b2f 18be 17f6 e43d
000002e0: 9b10 71bc a6a4 c63d b7ef cfbd 720d 243e
000002f0: 1f24 c33c 33b8 1d3d b538 aabd 7d53 c9bd
00000300: eb8d 0b3c 412d 233d 9f7b 7e3d aedb e33d
00000310: 5877 62bd ad15 053e 0799 1dbe bf72 7237
00000320: 759b 393e 3bad 20be 4b1c 2c3d 941e 3b3e
00000330: debc 933d 2033 bcbd 540a 28be e9d4 28be
00000340: 9279 03be 2cba 09be 1397 4d3d d8c9 a93d
00000350: 74a1 813d 13bc a4bd 0376 8d3d f510 2e3d
00000360: 223b 94bc e75f 11bd fa28 dc3d 471b 07be
00000370: 8de1 94bd 3987 c53d 93e8 d2bd 5f7f 07be
00000380: d916 08be 8332 473e 3f9c 37be a4f8 4f3e
00000390: 541f d83c e47f 183c 3e7b cebc 60cb 933b
000003a0: e5f7 673d 1ea8 95bd 7829 9dbd ed07 c83c
000003b0: 852d 423c d3ef f2bd 6d32 283d c90a 013e
000003c0: fabc 123e 9dcd 91bd 5a57 873d 7a93 f53c
000003d0: 666e dc3d 5772 c0bd 66c7 c83d b993 ebbd
000003e0: 48bf da3d ba04 083d a002 003d 7f04 ffbd
000003f0: fd48 c83d 77b7 1c3e ffff 35be 8369 db3d
-0.028227651 -0.13829286 0.0944376 0.016709464 -0.19866931 -0.054887988 -0.09500839 0.04026693
-0.106563784 -0.12299376 0.037869275 -0.06280651 0.1569815 -0.07932688 -0.0285663 0.010041508
-0.08576494 -0.040393427 0.044341177 0.0071154344 -0.0049986765 -0.15002196 0.11009938 -0.24462259
-0.007834817 -0.12137423 -0.06724231 -0.117146865 -0.04520921 -0.0759178 0.015309596 0.10034705
-0.009215273 -0.15121101 -0.0030089929 -0.0052634445 -0.061745703 0.01357763 -0.12988499 0.15370339
0.09497367 -0.073211215 -0.11485608 0.16711153 0.15052624 0.025295574 -0.05953407 0.031473875
0.15708882 -0.09130433 -0.05846627 -0.007280161 -0.05856509 -0.13364327 -0.18944684 0.0238472
0.1198198 -0.2529289 0.12102945 0.082649924 0.08833799 -0.033625204 0.122350596 0.09316067
-0.110811464 0.19423677 -0.07108217 -0.005022866 -0.0007588782 0.0863145 0.07333918 -0.002473311
0.11652835 0.16208325 -0.03107225 0.011070313 -0.1632183 -0.035175126 0.048251327 -0.054396152
-0.07947899 -0.100105785 -0.008225649 -0.05991174 -0.05236464 -0.1169704 -0.17284462 0.056291897
-0.021968028 0.045372467 0.17901053 0.07944733 -0.11842989 0.053266726 0.015220961 0.05621424
-0.11338034 0.16107705 -0.038237732 0.08468006 -0.119662866 -0.18551767 0.11477355 0.027747687
-0.14462133 0.13635732 -0.21123035 -0.010811484 0.02965215 -0.016191345 0.112570055 -0.12996882
-0.15644334 -0.24546498 0.16423413 0.026185045 0.1471821 -0.17948344 -0.108868875 0.14120746
-0.037079304 -0.070890084 0.13890298 0.00805733 0.00896554 -0.010051454 0.007224762 0.1039191
0.15825969 -0.20008022 0.13599177 -0.12210223 -0.07794387 0.13458298 -0.08710962 -0.026193218
-0.18780172 -0.00028622165 0.0026828807 0.10093716 0.13743994 -0.026686626 0.0725027 0.116092004
-0.09072095 -0.0019557867 0.015622072 0.14588943 -0.09783315 -0.014757125 0.110239394 0.090301044
0.059548907 0.117585495 -0.110122114 0.100467704 -0.016570766 0.06936281 0.03280393 0.13022259
0.10634944 0.115293115 -0.04415023 -0.105577625 -0.09842971 -0.023578882 -0.065675765 -0.0957994
-0.13206719 -0.058785055 -0.19453414 0.009002634 0.14257692 0.1155302 0.11907689 0.06419685
-0.025830531 -0.073693074 0.10622763 -0.08131446 0.06957648 -0.058945052 -0.14861791 0.111797504
-0.014713432 0.09699373 -0.10153144 0.16020754 0.023820935 0.038505744 -0.08311597 -0.09830377
0.008517723 0.03983808 0.062129613 0.11125885 -0.055289596 0.1299655 -0.15390407 1.445104e-05
0.18125708 -0.15691082 0.04201917 0.18273383 0.07213758 -0.09189439 -0.1641019 -0.16487469
-0.12839344 -0.13449925 0.050192904 0.08290452 0.06329623 -0.08043685 0.069072746 0.04249664
-0.018094603 -0.03549185 0.10750003 -0.13193999 -0.07269583 0.09644932 -0.10298266 -0.13232182
-0.13289966 0.19452862 -0.17930697 0.20309693 0.026382126 0.009307835 -0.02520525 0.004510328
0.056632895 -0.073074564 -0.07673925 0.024417842 0.011851673 -0.11862149 0.041063715 0.1260177
0.14329901 -0.07119296 0.06608458 0.029977549 0.10763244 -0.093968086 0.09803657 -0.11502785
0.10681015 0.033207633 0.031252503 -0.124520294 0.097795464 0.15304361 -0.17773436 0.10713484

sequential/dense_1/MatMul_bias f4 [64]
00000000: 303b 133e 6e59 65be 8e4d c3bd b84b babb
00000010: 9b39 143d b0f3 303e bc41 673e fb78 5c3e
00000020: 03e7 603e e652 613e 2075 923c 5597 193e
00000030: 5960 253e ecc2 793e 83dc 9bbc 8a25 463e
00000040: 3363 603e 4b87 3d3e 6011 e63d 4965 3cbd
00000050: e44f 81bd 180a 113e 2920 84be 5700 693e
00000060: 14b6 b5bd a45a 423e 97ea 413e 49e8 30be
00000070: 336b 5ebe 32c2 4d3e cc3e 633e eecb 503e
00000080: b9ea 923c 0c96 96bd e7eb 3c3e 923c 32be
00000090: 709e c2bc 498a 5f3e 67bd 6f3e ed9c 833d
000000a0: 7c5d 803e c4a2 143e adfa b23c 7ce0 1dbe
000000b0: e95d 643e 3664 03bd 6e1e 373e c835 553e
000000c0: 2a61 233e c41b 12bd b468 0e3e 7602 993c
000000d0: 0309 81bd 1ee9 6c3e 4516 57be d03d 25be
000000e0: f20e 27be 076d a8bd 5389 563e 0453 58bd
000000f0: 7d0f 803e b5a4 ca3d 35fe 7cbd 4b98 b8bc
0.14378047 -0.22397396 -0.09536277 -0.005685296 0.03618775 0.1728046 0.2258367 0.21530525
0.21963124 0.2200428 0.017878115 0.14999135 0.16150035 0.24390763 -0.019026047 0.19350258
0.21912841 0.18508641 0.11233783 -0.04599503 -0.06314066 0.14164007 -0.25805786 0.22754036
-0.08872619 0.18979889 0.18937145 -0.1727611 -0.21720581 0.20093611 0.22191924 0.20390293
0.01793419 -0.07352838 0.18449365 -0.17405918 -0.02375719 0.21830095 0.23412095 0.064264156
0.25071323 0.14515215 0.021848047 -0.15417665 0.22301449 -0.03207799 0.17882702 0.20821297
0.15955034 -0.03567101 0.13907129 0.018677931 -0.06300547 0.23135802 -0.21004589 -0.16136861
-0.16314295 -0.0822392 0.20950823 -0.052813545 0.25011817 0.098946966 -0.06176587 -0.022533556

sequential/dense_2/MatMul/ReadVariableOp/transpose f4 [2, 64]
00000000: fd56 1fbe 2da7 2f3e 8d58 24be 43a1 ab3c
00000010: 449d ca3d 16bb 9ebd 93bb 87be 1114 6e3e
00000020: 6d4f db3e 4c9d 4a3e cc28 b13d 1304 2b3e
00000030: af23 5b3e fd27 633e 0667 fabd 9057 583e
00000040: e839 2d3e d937 aebe 787d 763d 263d 53bc
00000050: 0b34 6d3e 9363 b93c ec25 ba3d 5ac2 9a3e
00000060: cc27 2c3d 3e34 7fbe 7c3e 55be 3f42 10be
00000070: c419 a43e 7bbc 26be 159d 67be d14e 06bd
00000080: def4 853d bcec 873d 1c4b 93be df4c 39bd
00000090: e43a f73a e50f 3cbe c5ef 37bd 6e3b 3abd
000000a0: eb48 163e c155 67be 02a9 f83d 985f 9c3d
000000b0: a9a8 253e 1681 3cbe 0e17 af3d 3db6 063e
000000c0: e8c7 87be 59ec 87bd 98ee ab3d 2c6d 09be
000000d0: e1b3 16be f0cd 9bbe f6ae 69be e1ec e93d
000000e0: c90d 6e3d a1e8 1abe 87d0 9d3e 1a57 6cb9
000000f0: ea2e 9dbe dc30 a73d 1e50 1dbe b985 f1bb
00000100: 6c96 0b3d 1796 3abe 99ed 20be 4118 e3bd
00000110: 71c3 bb3c 7c77 69be ad5f 48be bc7c 71be
00000120: 349a 063e 6e26 8b3e daf6 f63c a1e7 46be
00000130: 16bf adbd facb 88be 6bd8 c0bd fd19 3ebd
00000140: 0293 873e b4ff 723d 530f a53d 8bfc 263e
00000150: 01cb 3d3e 2eac 11be 5acf 3fbe 6867 e4bd
00000160: caa3 86bb eb63 b8bd 013b a5bd 15d0 19be
00000170: e9c5 d83c d424 603e 6dc9 8cbe cb91 923e
00000180: 86df e13c d3a2 1cbe 074e 2fbd 82d8 8f3e
00000190: e6da 19bd 04e8 a4be b92d 8bbe f221 a13d
000001a0: ace0 a0be f84a 8b3e 8171 03bd 001e 623e
000001b0: cf32 4bbe 2849 3cbe 2bf3 0cbe 6f21 ba3e
000001c0: 13da 763d eca4 16be 7ec1 0abe 9e8a 513e
000001d0: 61d0 7bbe b05d 7fbe f5b7 4d3d 72c0 f53d
000001e0: 4270 29be 3c3b 3b3a a9dd 913e 1af1 443e
000001f0: a4ae 9b3e b7be e7bd c354 0a3d 4d29 413d
-0.15560527 0.17153616 -0.16049404 0.020950919 0.09893277 -0.077505276 -0.26510295 0.23249842
0.42834035 0.19786566 0.086503595 0.16700773 0.21400331 0.22183223 -0.122266814 0.21127152
0.1691662 -0.34026983 0.06017825 -0.012892997 0.23164384 0.022630488 0.09089264 0.30226403
0.04203014 -0.24922273 -0.20824617 -0.14087771 0.32050908 -0.16282837 -0.22618516 -0.03279001
0.06540845 0.066369504 -0.2876824 -0.045239326 0.0018862155 -0.18365438 -0.044906396 -0.045466833
0.14676253 -0.22591306 0.12141611 0.076354206 0.1617762 -0.18408617 0.08549319 0.13155456
-0.26519704 -0.066368766 0.083951175 -0.13420552 -0.14717056 -0.30430555 -0.22820649 0.11422134
0.058118615 -0.15127803 0.30823156 -0.00022539162 -0.30699855 0.08163616 -0.15362594 -0.0073706773
0.034079 -0.18221317 -0.15715636 -0.110886104 0.022920342 -0.22799486 -0.19567747 -0.23582739
0.13144761 0.27177757 0.030147005 -0.19424297 -0.084837124 -0.26718122 -0.094162785 -0.046411503
0.26479346 0.05932589 0.080595635 0.16307275 0.18534471 -0.14225838 -0.18731442 -0.11152536
-0.0041088806 -0.09003433 -0.08067895 -0.15020783 0.026461558 0.21889049 -0.27497426 0.28626856
0.027572405 -0.15296488 -0.042799022 0.2809487 -0.037562273 -0.32208264 -0.2718332 0.07867803
-0.3142141 0.27205634 -0.032090668 0.22081757 -0.198436 -0.18387282 -0.13764636 0.36353633
0.060266566 -0.1471135 -0.13550374 0.20463035 -0.24591209 -0.24938083 0.050224263 0.11999597
-0.16546729 0.00071423105 0.28489426 0.19232598 0.30406678 -0.11315673 0.03377224 0.047158528

sequential/dense_2/MatMul_bias f4 [2]
00000000: 65d1 ae3b 1077 3e3c
0.0053350204 0.011625066
