code/config/neuralnets/CNN_Analog-Readout_Version-6.0.1.tflite (tflite, 315584 bytes, 14 tensors)

sequential/batch_normalization/FusedBatchNormV3_add_param f4 [3]
-0.873682 -0.675 -0.5117171
00000000: a0a9 5fbf cdcc 2cbf e4ff 02bf

sequential/batch_normalization/FusedBatchNormV3_mul_0_param f4 [3]
0.007138936 0.006081724 0.0044965018
00000000: bced e93b 3349 c73b 6457 933b

sequential/conv2d/Conv2D/ReadVariableOp f4 [64, 5, 5, 3]
-0.18800187 -0.06407586 -0.028636333 -0.017540054 -0.025821583 -0.06447726 -0.110319525 -0.047332674
-0.022237059 0.052732073 0.114393726 0.1141431 -0.15721224 -0.07652661 -0.027180355 0.08907515
0.107459486 -0.011472719 0.0835321 0.09695195 -0.0054634814 -0.07445592 -0.05803772 -0.100007124
0.009122558 0.07715173 0.07637026 -0.070844464 0.022344898 -0.068920866 -0.016436467 -0.10320699
-0.06314577 0.041456938 -0.014024341 0.008275571 0.08001442 0.050947573 0.056335833 -0.0765383
-0.015749764 -0.0032733304 -0.06754158 0.07070145 -0.010796604 -0.049224637 -0.014885856 -0.05069786
0.073321626 0.038956515 -0.02226891 0.09618956 0.030639028 0.116833515 0.04558292 0.010954155
-0.031907484 -0.06703139 0.022788253 -7.0342474e-05 0.048719708 -0.049325738 0.0060641197 -0.0012967122
-0.14665677 -0.033437915 -0.0151511645 -0.056704205 0.0012804952 0.02863504 -0.010260466 0.06341994
-0.00772508 -0.015713224 0.03925384 -0.029014483 0.029708471 -0.030887304 -0.035806797 0.055220548
0.05845547 -0.12060899 -0.031287603 0.093407094 -0.10946036 -0.0064232824 -0.020413931 -0.09736728
-0.048989125 -0.044659104 -0.02872967 0.07642375 0.07275849 0.035101816 0.060645252 0.14394654
-0.021304695 0.0075313854 0.12246638 -0.0046924166 -0.0056740306 0.07396637 0.0012238529 0.008557754
0.07850223 0.04146578 0.050545797 0.052875623 -0.050730616 -0.0673131 0.06439232 -0.0650664
-0.019275641 -0.010610334 0.15439017 0.02709445 0.041316945 0.0125172995 -0.11934337 -0.0035201255
0.09691449 0.09884549 0.14094432 -0.13013144 -0.20267835 -0.13150609 0.05894309 -0.049152903
0.0069937906 0.03729113 0.055421323 0.05268986 0.025340632 -0.074240014 0.056481607 -0.08181225
-0.21358119 -0.14680667 0.055251207 -0.0008111672 -0.029835619 -0.012999735 -0.084559456 -0.019576976
0.022855919 -0.06548508 -0.00479821 0.09885206 -0.04382648 -0.07277816 0.04906685 -0.15611097
-0.1137684 0.13861205 -0.0380122 -0.08954853 0.19014709 -0.07834901 -0.1103771 0.08489849
-0.12450526 -0.06356993 0.077555545 -0.17588869 -0.15870385 0.05477111 -0.07601527 -0.07044135
-0.07157954 -0.11579635 -0.06830179 0.07904713 0.011625591 -0.03867381 0.1323482 0.06570981
-0.06322341 0.09539262 -0.004390224 -0.10255524 -0.067692906 0.069191426 0.0068679843 -0.11649447
0.032021064 -0.031375017 -0.09255816 0.050170567 0.026638258 -0.038753025 0.12721404 0.039031755
0.0057234913 0.0681608 -0.029102273 -0.074235246 0.15264939 0.020624515 -0.07522547 0.18077594
0.13161412 -0.0893577 0.078000516 0.08924194 -0.11471501 0.10144755 0.12344437 -0.025831291
0.025821503 -0.009435994 -0.07484722 0.08781264 0.0194477 -0.167516 -0.041154467 0.021872215
-0.090560995 0.09859365 0.06126278 -0.075361796 -0.028115433 0.022642352 -0.13874385 0.038417123
0.045366243 0.01023238 -0.12666653 -0.11686116 0.04863467 -0.028493073 -0.08225268 0.040304527
-0.07086079 -0.069029495 0.011792842 -0.09621535 -0.013861672 0.032931585 0.045219306 0.0071844375
0.076367594 -0.07829329 -0.09095812 0.12161418 -0.010982146 -0.003199931 -0.06838083 -0.07508269
-0.05665177 0.046975143 -0.01958803 -1.5133031e-05 -0.07706676 -0.05319703 -0.062290203 0.029645769
00000000: 9083 40be 343a 83bd be96 eabc 29b0 8fbc
00000010: c987 d3bc a70c 84bd 34ef e1bd e8df 41bd
00000020: 7e2a b6bc 96fd 573d 4247 ea3d dcc3 e93d
00000030: 3ffc 20be fcb9 9cbd 56a9 debc 086d b63d
00000040: b813 dc3d 12f8 3bbc e112 ab3d be8e c63d
00000050: 0107 b3bb 587c 98bd f6b8 6dbd 89d0 ccbd
00000060: c876 153c ba01 9e3d 0368 9c3d e716 91bd
00000070: a60c b73c 6226 8dbd c5a5 86bc 305e d3bd
00000080: 9252 81bd c0ce 293d 59c6 65bc 4396 073c
00000090: 9ade a33d 67ae 503d 67c0 663d 1dc0 9cbd
000000a0: a605 81bc 5f85 56bb 3d53 8abd eccb 903d
000000b0: 3de4 30bc c69f 49bd cee3 73bc 8fa8 4fbd
000000c0: a629 963d de90 1f3d 4a6d b6bc 08ff c43d
000000d0: b3fe fa3c 6946 ef3d 28b5 3a3d 0e79 333c
000000e0: 6cb1 02bd c147 89bd 6eae ba3c d484 93b8
000000f0: 518e 473d c909 4abd 86b5 c63b 71f6 a9ba
00000100: 312d 16be 32f6 08bd 973c 78bc ab42 68bd
00000110: 4ad6 a73a 0894 ea3c 831b 28bc 50e2 813d
00000120: ab22 fdbb 05b9 80bc a2c8 203d c8af edbc
00000130: 2e5f f33c 5f07 fdbc 26aa 12bd f12e 623d
00000140: 016f 6f3d d901 f7bd 6e27 00bd 384c bf3d
00000150: c12c e0bd 667a d2bb 1e3b a7bc 7f68 c7bd
00000160: d2a8 48bd 77ec 36bd 7c5a ebbc 0e84 9c3d
00000170: 6702 953d ecc6 0f3d 2867 783d b966 133e
00000180: 2f87 aebc d7c9 f63b a7cf fa3d d8c2 99bb
00000190: 38ed b9bb ae7b 973d b069 a03a d235 0c3c
000001a0: c7c5 a03d 06d8 293d 1c09 4f3d 1c94 583d
000001b0: e8ca 4fbd 73db 89bd 1fe0 833d 8841 85bd
000001c0: f3e7 9dbc f7d6 2dbc 7518 1e3e 2ef5 dd3c
000001d0: f53b 293d 5c15 4d3c 4c6a f4bd e8b1 66bb
000001e0: 1b7b c63d 816f ca3d b553 103e 2d41 05be
000001f0: ea8a 4fbe 88a9 06be 4f6e 713d 8e54 49bd
00000200: 2b2c e53b 95be 183d 7801 633d 53d1 573d
00000210: 2897 cf3c 260b 98bd 4259 673d 2e8d a7bd
00000220: 07b5 5abe 7d54 16be 174f 623d 82a4 54ba
00000230: d469 f4bc d7fc 54bc 822d adbd e55f a0bc
00000240: 563c bb3c 0b1d 86bd 4e3a 9dbb f372 ca3d
00000250: 6583 33bd b70c 95bd 52fa 483d 8edb 1fbe
00000260: 68ff e8bd 51f0 0d3e aeb2 1bbd 3865 b7bd
00000270: ebb5 423e 7275 a0bd 640d e2bd 42df ad3d
00000280: 9dfc febd f430 82bd 71d5 9e3d 2a1c 34be
00000290: 4383 22be ac57 603d e5ad 9bbd 8e43 90bd
000002a0: 4b98 92bd a326 edbd cfe1 8bbd 76e3 a13d
000002b0: 4379 3e3c 6e68 1ebd 4986 073e dd92 863d
000002c0: 467b 81bd 355d c33d dedb 8fbb 7b08 d2bd
000002d0: 94a2 8abd 3cb4 8d3d d40c e13b a794 eebd
000002e0: 8528 033d 1783 00bd 228f bdbd a77f 4d3d
000002f0: 7a38 da3c 7ebb 1ebd 6644 023e c3df 1f3d
00000300: 208c bb3b e497 8b3d e467 eebc a608 98bd
00000310: 1f50 1c3e bef4 a83c d00f 9abd 541d 393e
00000320: dac5 063e 2b01 b7bd bcbe 9f3d 7ac4 b63d
00000330: b4ef eabd bcc3 cf3d 67d0 fc3d 259c d3bc
00000340: 9e87 d33c 6d99 1abc 8049 99bd 1dd7 b33d
00000350: c850 9f3c 5089 2bbe 9691 28bd 5c2d b33c
00000360: 0b78 b9bd 78eb c93d aeee 7a3d 4957 9abd
00000370: 5652 e6bc 747c b93c de12 0ebe 465b 1d3d
00000380: f4d1 393d b6a5 273c dfb4 01be e754 efbd
00000390: 2635 473d 4e6a e9bc 1874 a8bd 5c16 253d
000003a0: 761f 91bd 565f 8dbd c436 413c 8e0c c5bd
000003b0: 111c 63bc 45e3 063d e137 393d 6e6b eb3b
000003c0: 9d66 9c3d 3c58 a0bd 4048 babd db10 f93d
000003d0: 75ee 33bc efb5 51bb 400b 8cbd f4c4 99bd
000003e0: b00b 68bd 0269 403d 1477 a0bc e0e3 7db7
000003f0: 2dd5 9dbd 21e5 59bd 0324 7fbd afdb f23c

sequential/conv2d/Conv2D_bias f4 [64]
-0.19956964 -0.20376916 -0.22036202 -0.15533328 -0.15071069 -0.14565241 -0.09821201 -0.2206388
-0.20034406 -0.14682773 -0.20615107 -0.20918702 -0.12788878 -0.15885039 -0.24022649 -0.15926194
-0.14345564 -0.16357426 -0.17337318 -0.07100723 -0.19086099 -0.15286027 -0.16395374 -0.16188392
-0.16667454 -0.15339278 -0.1332862 -0.17220892 -0.11623182 -0.19226019 -0.13018142 -0.25022247
-0.11619653 -0.11219868 -0.20976417 -0.17447595 -0.1575534 -0.23474395 -0.17363358 -0.17132924
-0.28392956 -0.2362183 -0.22128963 -0.1041473 -0.15093215 -0.21209227 -0.17612347 -0.18428357
-0.2118207 -0.2466224 -0.1883779 -0.2769162 -0.16575913 -0.18588163 -0.12913455 -0.16283011
-0.22755544 -0.23199934 -0.1452626 -0.20368096 -0.1723693 -0.17081217 -0.20378447 -0.16309245
00000000: fc5b 4cbe dda8 50be 95a6 61be b00f 1fbe
00000010: e753 1abe e825 15be 6123 c9bd 23ef 61be
00000020: fe26 4dbe 025a 16be 4419 53be 1f35 56be
00000030: 47f5 02be ada9 22be effd 75be 9015 23be
00000040: 09e6 12be 0380 27be bd88 31be 3d6c 91bd
00000050: 1071 43be 6787 1cbe 7de3 27be e6c4 25be
00000060: bbac 2abe ff12 1dbe 2d7c 08be 8957 30be
00000070: f30a eebd dbdf 44be 474e 05be 291d 80be
00000080: 72f8 edbd 6cc8 e5bd 6bcc 56be d3a9 32be
00000090: ae55 21be b860 70be 00cd 31be ef70 2fbe
000000a0: 375f 91be 36e3 71be c099 62be 2e4b d5bd
000000b0: f58d 1abe b72e 59be b659 34be d5b4 3cbe
000000c0: 87e7 58be 958a 7cbe 23e6 40be f6c7 8dbe
000000d0: c3bc 29be c157 3ebe d93b 04be f0bc 26be
000000e0: 4b04 69be 3c91 6dbe b8bf 14be be91 50be
000000f0: 9481 30be 63e9 2ebe e0ac 50be b501 27be

sequential/conv2d_1/Conv2D/ReadVariableOp f4 [32, 5, 5, 64]
0.015016593 0.023431627 -0.0446932 -0.019006079 0.0070654154 0.027206289 0.005910166 -0.009671671
-0.00895492 0.0010279762 -0.033410594 -0.033500347 0.025562046 -0.012333327 0.031985465 0.015203889
0.018456148 -0.005896755 -0.014636324 -0.006469633 -0.037350174 -0.010226378 -0.026998729 0.0014384151
-0.024711505 0.01395723 -0.023964815 0.033104923 -0.06475952 -0.024820222 -0.022068236 -0.014917591
-0.00875578 -0.002511313 0.02044737 0.0064420444 -0.02567012 -0.0384921 0.019785495 -0.0018562367
0.012931494 -0.032664213 -0.020749053 -0.06621686 0.027978322 -0.010545038 -0.0554762 -0.025369875
-0.058617678 -0.0063250926 -0.010027402 -0.0077610607 0.024765307 -0.04346536 -0.063907176 -0.03155643
-0.06253824 -0.018266765 0.01792673 -0.06803942 0.0084855985 -0.04534101 -0.048847362 -0.022677125
-0.046278168 0.0041875434 -0.060772058 -0.02390963 -0.030860767 -0.07546305 -0.03593485 -0.028193397
0.007807188 0.015211968 -0.0074213753 -0.053466935 0.033826727 -0.0016480493 0.03323792 -0.03546377
-0.029534094 -0.079239346 0.019569261 -0.021442434 -0.04765889 -0.05950444 0.019106952 -0.030688724
-0.0076476047 0.0060469597 -0.07020125 -0.027848475 -0.051031057 0.009958719 0.0045785336 0.021446077
-0.060940657 -0.034221053 -0.0054659513 -0.071989104 -0.04486805 0.008544324 -0.018206064 -0.0040735956
-0.050167594 -0.049041774 -0.026486583 -0.018434072 -0.060254525 0.0076622167 -0.058117196 0.0038712472
0.021070564 -0.06495158 -0.034656264 -0.04087676 0.0069390438 -0.040335238 -0.029925907 -0.025802426
0.044049073 -0.021785753 -0.035882983 -0.0470017 -0.020626716 -0.022761367 -0.0012006733 -0.03033419
-0.0064360914 -0.010078499 0.022128599 -0.004726693 -0.009544202 -0.017582567 0.058245137 -0.008893934
-0.021120366 -0.018532936 -0.016470727 0.04940649 -0.02395991 0.047121808 -0.030287405 0.0391958
0.0030182537 0.07010266 -0.028795877 0.017579762 -0.007597786 0.062697135 -0.02859617 0.0017465423
-0.027090041 0.011436158 0.04075879 -0.011883529 0.03604283 -0.0005761784 0.07158225 0.030425174
-0.030737704 0.071142636 -0.008892641 0.064500764 0.053662535 0.01667205 -0.027242409 -0.01946172
0.00023281277 -0.0071872845 0.037367556 0.018318372 -0.028210301 -0.06688469 0.031955656 0.0061629917
-0.04624036 0.0106841745 0.026734347 -0.094853 -0.018275246 -0.031472854 0.021242298 0.010706561
-0.04388281 -0.063121 0.036748264 0.02441623 -0.027656704 0.017296532 0.036899056 -0.031205805
0.06331905 0.0020444212 -0.08510462 0.06106668 0.014383615 0.01409986 -0.01199868 0.009101138
-0.029559523 0.02865981 0.094041795 0.00813052 0.024991948 0.012638849 0.019668119 0.0110104
0.020623617 -0.017805852 0.0022078673 -0.004177341 0.007927211 0.037867013 -0.03682358 -0.0033375307
-0.0625223 0.007250146 -0.07776262 -0.08874496 -0.097692266 0.054711066 -0.08557799 0.015582486
0.016516356 0.015906464 -0.029538292 -0.03793524 -0.044592753 0.010549949 0.040481336 -0.050003253
-0.009712504 0.011045393 -0.03234418 -0.016402151 -0.039326407 -0.056936756 -0.031115482 -0.031051127
-0.017272597 -0.00028447493 -0.0294385 0.021535885 -0.026235433 0.023071902 -0.038057152 -0.052209605
0.037974443 -0.018866565 -0.025945183 -0.0073479176 0.06497368 -0.00036562653 -0.015623337 0.018280553
00000000: 2808 763c aff3 bf3c 3810 37bd a3b2 9bbc
00000010: 0085 e73b b9df de3c 11aa c13b ee75 1ebc
00000020: a8b7 12bc 28bd 863a 8cd9 08bd a937 09bd
00000030: 7f67 d13c b911 4abc 3103 033d bc19 793c
00000040: 5931 973c 9139 c1bb 31cd 6fbc 37ff d3bb
00000050: 7ffc 18bd 8a8c 27bc 702c ddbc 3489 bc3a
00000060: c86f cabc deac 643c dc51 c4bc 0799 073d
00000070: a4a0 84bd c753 cbbc 72c8 b4bc e968 74bc
00000080: 6774 0fbc d794 24bb 3e81 a73c c917 d33b
00000090: 254a d2bc e4a9 1dbd 3115 a23c f84c f3ba
000000a0: 9ede 533c e9ca 05bd ebf9 a9bc b59c 87bd
000000b0: cb32 e53c 18c5 2cbc 033b 63bd 7cd4 cfbc
000000c0: 1719 70bd b942 cfbb f949 24bc 7f50 febb
000000d0: 9de0 ca3c bc08 32bd c4e1 82bd 5141 01bd
000000e0: 0c14 80bd 2fa4 95bc 14db 923c 4058 8bbd
000000f0: 2e07 0b3c 7fb7 39bd 2c14 48bd 61c5 b9bc
00000100: 2d8e 3dbd a937 893b 1fec 78bd 21de c3bc
00000110: b8cf fcbc 5f8c 9abd 6c30 13bd d7f5 e6bc
00000120: 71d3 ff3b 9e3b 793c 022f f3bb 2500 5bbd
00000130: e58d 0a3d 5c03 d8ba 7c24 083d 7542 11bd
00000140: 7cf1 f1bc 3d48 a2bd b74f a03c 0ba8 afbc
00000150: f835 43bd edba 73bd 2f86 9c3c eb66 fbbc
00000160: c298 fabb 9325 c63b acc5 8fbd 7c22 e4bc
00000170: f105 51bd e529 233c 8607 963b afaf af3c
00000180: e99c 79bd 602b 0cbd b91b b3bb 066f 93bd
00000190: 8fc7 37bd 7efd 0b3c e224 95bc cc7b 85bb
000001a0: 897c 4dbd 07e0 48bd 64fa d8bc 0d03 97bc
000001b0: 73cd 76bd 5513 fb3b 4c0c 6ebd c0b4 7d3b
000001c0: 2d9c ac3c 5505 85bd baf3 0dbd 646e 27bd
000001d0: eb60 e33b 9036 25bd 2d27 f5bc 9c5f d3bc
000001e0: cd6c 343d 0978 b2bc 09fa 12bd db84 40bd
000001f0: 5cf9 a8bc 0c76 babc e95f 9dba 687f f8bc
00000200: d9e5 d2bb 4a20 25bc 0947 b53c 60e2 9abb
00000210: 495f 1cbc 5109 90bc 7492 6e3d ddb7 11bc
00000220: 9e04 adbc 62d2 97bc 9eed 86bc 765e 4a3d
00000230: 9347 c4bc cc02 413d 4b1d f8bc c68b 203d
00000240: e5cd 453b fc91 8f3d 55e5 ebbc 6f03 903c
00000250: d9f6 f8bb 5b67 803d 8442 eabc 3cec e43a
00000260: efeb ddbc b95e 3b3c b0f2 263d 22b3 42bc
00000270: a6a1 133d ae0a 17ba b799 923d 373e f93c
00000280: a3cd fbbc 3bb3 913d 71b2 11bc fa18 843d
00000290: 3fcd 5b3d d393 883c 792b dfbc 2f6e 9fbc
000002a0: 341f 7439 5083 ebbb b90e 193d 6910 963c
000002b0: 4a19 e7bc d7fa 88bd efe3 023d ecf2 c93b
000002c0: 8866 3dbd ad0c 2f3c fd01 db3c 4a42 c2bd
000002d0: f8b5 95bc aee9 00bd 5404 ae3c 926a 2f3c
000002e0: 76be 33bd 9545 81bd 5985 163d 8c04 c83c
000002f0: 5090 e2bc 75b1 8d3c 7723 173d 51a3 ffbc
00000300: 6bad 813d b2fb 053b 554b aebd 0e21 7a3d
00000310: 41a9 6b3c 1903 673c 1d96 44bc f11c 153c
00000320: d026 f2bc fac7 ea3c fc98 c03d df35 053c
00000330: eabb cc3c 2d13 4f3c 091f a13c f764 343c
00000340: dcf2 a83c 94dd 91bc deb1 103b 13e2 88bb
00000350: 22e1 013c 711a 1b3d 52d4 16bd 79ba 5abb
00000360: b10b 80bd a292 ed3b 0242 9fbd ebbf b5bd
00000370: e212 c8bd b618 603d 8343 afbd af4d 7f3c
00000380: 4f4d 873c 464e 823c 4afa f1bc fb61 1bbd
00000390: e4a6 36bd b1d9 2c3c c2cf 253d 36d0 4cbd
000003a0: 3221 1fbc bcf7 343c 557b 04bd ce5d 86bc
000003b0: ba14 21bd 8436 69bd e5e5 febc ef5e febc
000003c0: 437f 8dbc 9425 95b9 0229 f1bc 066c b03c
000003d0: b1eb d6bc 4901 bd3c d1e1 1bbd bdd9 55bd
000003e0: 178b 1b3d 0e8e 9abc fe8a d4bc cdc6 f0bb
000003f0: ec10 853d 90b1 bfb9 06f9 7fbc 19c1 953c

sequential/conv2d_1/Conv2D_bias f4 [32]
0.055786025 0.017045632 -0.18222402 0.0023938133 -0.011477435 -0.022541434 0.004443358 0.05036312
-0.08370467 -0.00722217 0.06872393 -0.008924132 -0.090697624 0.011798868 0.10098358 -0.12608962
-0.07253587 0.0010358095 -0.018279321 -0.014434926 -0.022931026 0.0028766398 -0.024389507 -0.026873926
0.019623505 0.03651883 0.026804961 -0.11994418 -0.011600891 -0.00088929 0.081125855 0.01930326
00000000: e37f 643d 48a3 8b3c ef98 3abe 86e1 1c3b
00000010: da0b 3cbc d0a8 b8bc 9799 913b 8f49 4e3d
00000020: 5b6d abbd f4a7 ecbb 22bf 8c3d 8636 12bc
00000030: adbf b9bd 0a50 413c 7bd0 ce3d a31d 01be
00000040: b08d 94bd 00c4 873a 84be 95bc 7880 6cbc
00000050: d9d9 bbbc 0286 3c3b 81cc c7bc b526 dcbc
00000060: 79c1 a03c c594 153d 1496 db3c 4ba5 f5bd
00000070: aa11 3ebc 3e1f 69ba 5025 a63d df21 9e3c

sequential/conv2d_2/Conv2D/ReadVariableOp f4 [32, 3, 3, 32]
0.10540699 0.0005170498 -0.032011196 -0.012046332 0.057290137 -0.07111889 0.04280204 0.112839445
-0.25584212 -0.032777943 0.05620735 -0.017328601 0.09512941 -0.06671415 0.045663696 0.0743685
-0.07411742 0.08161769 -0.098505706 0.041628014 0.008513427 0.10654328 -0.082855634 -0.023135556
0.06624436 0.12734087 0.106037416 0.008111879 0.05719352 -0.02917648 0.06489348 0.021839635
0.065823704 -0.07041521 0.10338805 0.032193117 -0.025225226 0.0539302 -0.04813706 0.04543376
0.14539154 -0.009994356 0.115190156 -0.023591284 0.043830495 0.21598534 0.040141594 -0.13544041
0.18313323 -0.19973236 -0.09581416 0.13801044 -0.04564139 0.018721048 0.0043439115 0.009769551
0.014179612 0.03806651 -0.022029683 -0.027092341 0.03625764 0.04044344 -0.08602233 -0.086042374
0.056670617 -0.0061804573 -0.045610283 0.04034409 -0.054237686 0.04812893 0.034979366 -0.034070402
-0.039325796 -0.09861871 0.061308205 -0.019601328 0.08485393 0.027436525 0.0013104611 -0.025577962
-0.07628461 -0.04118661 -0.031780712 -0.00013351372 -0.05140631 -0.07933744 -0.011116928 0.08725563
-0.08799373 -0.08045333 -0.051545616 -0.032703605 0.08252203 0.029592767 -0.0010039203 -0.024888095
-0.13950987 0.060035877 -0.051597215 -0.0072498065 -0.067389935 0.09152368 0.017706472 -0.016602566
0.096728176 -0.03987976 -0.021306688 -0.04738106 -0.046014335 0.07757108 0.029289596 0.10554195
-0.07133087 0.15972656 0.040136088 0.056555063 0.0811191 0.09023745 -0.101846986 -0.044749547
-0.046343844 0.018860105 0.08165874 -0.10859346 0.022673659 -0.015579274 0.09298732 0.019400798
0.08010276 -0.08192604 0.12946974 -0.11602294 0.049509298 -0.016090676 -0.046661943 0.022485375
-0.03677585 -0.076344915 -0.03640358 -0.014885914 -0.0650217 -0.0641572 0.053566348 -0.051943917
-0.06492333 -0.043806855 -0.0424131 -0.11094996 0.08883155 -0.0012427885 0.07681749 0.03138097
0.033820666 0.1020082 -0.088041075 -0.050094053 0.07871533 -0.04110659 -0.041970737 0.06571021
0.08597826 0.08311195 -0.1404675 -0.005858276 0.02418258 -0.04918475 0.08110747 0.048437156
0.03091574 -0.027002778 -0.086495414 -0.07674129 -0.13078256 -0.010382018 -0.054918464 0.11974899
-0.14889611 -0.047076087 -0.013111392 -0.05958442 0.045645963 0.07719266 0.019588323 0.056947622
-0.07553694 -0.0038337002 -0.036161702 -0.031770732 -0.07241267 -0.040834256 0.09843655 -0.044663854
-0.04209407 -0.06362312 -0.012402847 0.06042383 0.047961082 0.0021940484 0.07629739 0.052776087
-0.049514793 -0.10130279 0.06367194 0.0842998 0.07327293 -0.07351637 0.058842875 0.059537955
-0.05180182 -0.14933002 0.039814994 0.11057934 -0.032796666 -0.06586454 0.023245947 -0.097431414
-0.033357937 -0.11332402 -0.022205153 -0.0827549 -0.072550416 -0.015415035 -0.031095015 0.024875592
0.032992866 0.03646792 -0.005048729 0.028348181 0.06526319 0.075599864 0.060560595 -0.02060413
0.0017975727 0.06484743 0.059411805 0.03379818 0.017386112 -0.014521938 -0.03477792 -0.08078196
0.058580164 -0.010314565 -0.0072641494 -0.08448378 0.090590514 0.020361941 0.053864088 -0.034668956
0.010444682 0.07099239 0.027761212 0.03164088 -0.04602169 0.06548027 -0.055248514 0.07171884
00000000: 9fdf d73d a08a 073a 2c1e 03bd fa5d 45bc
00000010: 10a9 6a3d c8a6 91bd 3151 2f3d 5e18 e73d
00000020: bdfd 82be 2a42 06bd ae39 663d b6f4 8dbc
00000030: 35d3 c23d 6ea1 88bd db09 3b3d 834e 983d
00000040: e0ca 97bd 2d27 a73d 5cbd c9bd 2382 2a3d
00000050: e77b 0b3c 5d33 da3d 37b0 a9bd c786 bdbc
00000060: 1fab 873d a565 023e 252a d93d b0e7 043c
00000070: c143 6a3d 8303 efbc dfe6 843d 09e9 b23c
00000080: 94ce 863d da35 90bd 1dbd d33d eedc 033d
00000090: 22a5 cebc eae5 5c3d 5e2b 45bd c018 3a3d
000000a0: 85e1 143e 5ebf 23bc d1e8 eb3d 8242 c1bc
000000b0: 9b87 333d 432b 5d3e 836b 243d e4b0 0abe
000000c0: 4787 3b3e a486 4cbe 373a c4bd 9c52 0d3e
000000d0: 77f2 3abd e25c 993c 5f57 8e3b 7810 203c
000000e0: 9a51 683c a1eb 1b3d 9877 b4bc c2f0 ddbc
000000f0: e482 143d 05a8 253d 7a2c b0bd fc36 b0bd
00000100: 731f 683d 6f85 cabb d9d1 3abd d83f 253d
00000110: 5628 5ebd d722 453d 8646 0f3d 688d 0bbd
00000120: 1614 21bd 9bf8 c9bd 501e 7b3d f792 a0bc
00000130: e6c7 ad3d 90c2 e03c c7c3 ab3a e088 d1bc
00000140: 1b3b 9cbd 4ab3 28bd 7e2c 02bd d1ff 0bb9
00000150: 6c8f 52bd ab7b a2bd c723 36bc 14b3 b23d
00000160: 0f36 b4bd b7c4 a4bd 7f21 53bd 37f4 05bd
00000170: 4f01 a93d 886c f23c fa95 83ba 1ee2 cbbc
00000180: addb 0ebe 2ee8 753d 9a57 53bd c98f edbb
00000190: bc03 8abd c470 bb3d 2a0d 913c 1b02 88bc
000001a0: 6c19 c63d f658 23bd 5d8b aebc a412 42bd
000001b0: 8779 3cbd 96dd 9e3d bcf0 ef3c 6126 d83d
000001c0: eb15 92bd 5c8f 233e bd65 243d 48a6 673d
000001d0: c521 a63d 6ace b83d 2795 d0bd 4d4b 37bd
000001e0: 0bd3 3dbd 8280 9a3c b33c a73d 3f66 debd
000001f0: 1cbe b93c 3640 7fbc 2370 be3d 6cee 9e3c
00000200: ea0c a43d d7c8 a7bd b793 043e 6f9d edbd
00000210: 43ca 4a3d 98d0 83bc 9820 3fbd 4033 b83c
00000220: 46a2 16bd b95a 9cbd ec1b 15bd 0ce4 73bc
00000230: 192a 85bd da64 83bd 6368 5b3d 25c3 54bd
00000240: 86f6 84bd d16e 33bd 5cb9 2dbd bc39 e3bd
00000250: 51ed b53d 10e5 a2ba 7d52 9d3d 5589 003d
00000260: 8a87 0a3d ade9 d03d e14e b4bd 6c2f 4dbd
00000270: 8135 a13d 625f 28bd 82e9 2bbd 1393 863d
00000280: 5f15 b03d 9936 aa3d b6d6 0fbe c8f6 bfbb
00000290: 8c1a c63c f375 49bd ac1b a63d 0a66 463d
000002a0: 0243 fd3c ee34 ddbc 8224 b1bd 8a2a 9dbd
000002b0: ddeb 05be 5719 2abc 2ff2 60bd f53e f53d
000002c0: 3978 18be dbd2 40bd 2ad1 56bc cb0e 74bd
000002d0: 43f7 3a3d 2f17 9e3d b177 a03c e941 693d
000002e0: 1cb3 9abd d13e 7bbb 4b1e 14bd 0722 02bd
000002f0: 184d 94bd d241 27bd 1a99 c93d 72f1 36bd
00000300: d56a 2cbd d74c 82bd 5035 4bbc fa7e 773d
00000310: d772 443d 06ca 0f3b ce41 9c3d bd2b 583d
00000320: 06d0 4abd d677 cfbd 6f66 823d 60a5 ac3d
00000330: 1e10 963d c08f 96bd 3a05 713d 12de 733d
00000340: 252e 54bd f8e9 18be 0c15 233d 6c77 e23d
00000350: cc55 06bd fde3 86bd 496e be3c 1f8a c7bd
00000360: 55a2 08bd 6c16 e8bd 95e7 b5bc 677b a9bd
00000370: 5095 94bd 588f 7cbc f9ba febc e6c7 cb3c
00000380: 8723 073d 635f 153d cf6f a5bb 723a e83c
00000390: b5a8 853d 1ad4 9a3d 630e 783d fec9 a8bc
000003a0: 889c eb3a bbce 843d cb59 733d f66f 0a3d
000003b0: 526d 8e3c 6ced 6dbc 4b73 0ebd 0371 a5bd
000003c0: c1f1 6f3d 6cfe 28bc 1a08 eebb d505 adbd
000003d0: 8587 b93d 16ce a63c 97a0 5c3d 0901 0ebd
000003e0: 2c20 2b3c 7564 913d 7b6b e33c de99 013d
000003f0: 3d81 3cbd 851a 863d 444c 62bd 54e1 923d

sequential/conv2d_2/Conv2D_bias f4 [32]
-0.025315473 0.054754775 -0.08033373 0.05152608 0.040692367 0.09127323 -0.0022915967 0.12603039
0.08566285 0.016951568 -0.019869197 0.09234266 -0.0077345534 -0.043556456 0.13384971 0.10011717
-0.029934255 0.15631208 0.13834573 -0.055773426 0.071708135 -0.038118206 0.06875142 0.085421175
0.04502552 -0.06870078 -0.029929131 0.022407182 0.13064687 -0.03798234 -0.035216793 0.038159687
00000000: 6562 cfbc 8b46 603d 0386 a4bd 030d 533d
00000010: 0aad 263d 76ed ba3d 9d2e 16bb 1c0e 013e
00000020: 0170 af3d 04de 8a3c bac4 a2bc 261e bd3d
00000030: 2372 fdbb 4168 32bd e60f 093e 3b0a cd3d
00000040: af38 f5bc 4610 203e 81aa 0d3e ad72 64bd
00000050: b7db 923d d621 1cbd 8bcd 8c3d 4cf1 ae3d
00000060: ae6c 383d ffb2 8cbd f02d f5bc 448f b73c
00000070: 4bc8 053e 5f93 1bbd 7c3f 10bd 554d 1c3d

sequential/dense/MatMul/ReadVariableOp/transpose f4 [128, 32]
0.015851228 0.08346185 0.100110725 -0.02699774 -0.026706822 -0.103984214 0.23608038 -0.09351383
-0.042475313 -0.17618255 0.102947704 -0.12241113 -0.002705645 0.06534945 0.09432244 0.053457666
0.10690902 -0.0006648181 -0.0042483234 -0.033538204 -0.16303332 0.013159739 -0.027575694 -0.04180299
-0.06159698 -0.105188414 0.07934294 0.054068837 0.012865727 -0.1696983 -0.014503562 -0.064770825
-0.13003685 0.00076471374 0.17545 -0.06662761 -0.17066292 -0.1212839 -0.019470984 0.048429262
-0.0503193 0.13239783 0.08918524 0.087437436 0.045661785 0.028035823 -0.17364408 0.072604984
0.07090634 -0.18816143 0.087484375 -0.09213453 -0.19312869 -0.04732044 0.06160603 0.10571702
0.13021293 -0.14568236 -0.1937599 -0.15247893 -0.0621933 0.024230346 -0.18775757 0.028774116
-0.08773299 0.12040073 0.1466298 0.09317426 0.19052579 0.097030826 -0.1696596 0.1442831
-0.06271938 0.20813794 -0.08940983 0.035849936 -0.23211044 -0.09747458 -0.090443484 0.22062612
-0.08622307 -0.04593707 0.1258457 0.017149994 -0.056424133 0.03064571 0.04983571 -0.30367285
0.13171317 -0.24787246 -0.18073106 -0.14279051 -0.054610923 0.17219527 -0.105979525 -0.17770815
-0.0002127199 0.17298803 0.11730225 -0.015658762 0.053897075 0.09267761 0.10129347 -0.08360553
0.11871842 0.141165 -0.07134403 0.053936783 0.03742195 0.05342545 0.0024242403 0.17030811
0.067999706 -0.014245801 -0.10442795 0.06884186 0.067068145 -0.021627754 -0.22506095 0.01494676
-0.0871748 0.00922573 0.06735889 -0.09830296 0.0360492 -0.17468607 -0.1817064 0.11316096
-0.1935865 -0.053868078 -0.026037533 -0.048827525 0.014699257 -0.17055151 0.23520298 -0.07158519
0.181424 0.012705673 0.17320943 0.19206296 0.03333728 -0.15984316 0.13205387 -0.0055968766
-0.05551616 0.13276573 0.02855997 0.031907085 -0.07728102 0.11159582 0.06353904 0.19010633
0.04582937 0.1363431 0.10343791 0.121715926 -0.16313633 0.10760112 -0.17278533 -0.08768357
0.029830394 0.04093022 0.0111629395 0.0025752843 -0.08137299 -0.102973774 0.11300039 -0.07090429
-0.02682423 -0.026166864 0.07072813 -0.08508133 0.008669546 0.0031912597 -0.11543342 -0.06757147
-0.074389815 -0.06419016 -0.12327195 0.14349142 0.15757278 0.0550698 0.071317546 0.12133654
-0.12956986 0.11781812 0.16121085 0.18379922 -0.075541504 0.1484987 -0.03562027 -0.07631007
-0.1537528 0.026327232 0.0049251695 -0.11599473 0.11399511 0.06772602 -0.15486631 0.13797213
0.14131093 -0.20334467 0.028075054 -0.09648947 0.04355916 -0.17682727 0.018764025 -0.05278615
-0.04652123 -0.08054359 -0.105623804 -0.08399885 -0.20383376 0.021949071 0.09623543 -0.003373672
0.09018854 0.06417314 0.12612516 0.12487182 -0.13718937 0.12754098 -0.14416134 0.08895478
0.035479773 -0.024717277 0.08978533 0.011178349 -0.14441538 0.11981238 -0.09579364 -0.10543086
-0.09749521 -0.009357403 -0.16832015 0.12829582 -0.17507227 0.082947694 -0.02973411 0.089723736
0.15550698 -0.104882374 -0.20061111 -0.1819865 -0.123839356 0.037891902 -0.033695538 0.13138597
-0.025452351 0.021185698 -0.11640753 0.1564099 -0.094551265 -0.04702598 -0.11833208 -0.085144505
00000000: 6fda 813c 0cee aa3d da06 cd3d 5d2a ddbc
00000010: 44c8 dabc adf5 d4bd 0ebf 713e 2e84 bfbd
00000020: 98fa 2dbd 3369 34be 3fd6 d23d b0b2 fabd
00000030: 3151 31bb efd5 853d 202c c13d 6df6 5a3d
00000040: 1ef3 da3d 3047 2eba 8535 8bbb 5b5f 09bd
00000050: 35f2 26be f29b 573c 6ce6 e1bc 9d39 2bbd
00000060: 1d4d 7cbd 066d d7bd 8d7e a23d 4977 5d3d
00000070: c5ca 523c 64c5 2dbe 59a0 6dbc 91a6 84bd
00000080: 6128 05be 1277 483a 2aa9 333e 0e74 88bd
00000090: 43c2 2ebe b263 f8bd 9d81 9fbc c35d 463d
000000a0: 9c1b 4ebd 4c93 073e c0a6 b63d 6612 b33d
000000b0: da07 3b3d 62ab e53c c1cf 31be ecb1 943d
000000c0: 5837 913d 64ad 40be 022b b33d 07b1 bcbd
000000d0: 87c3 45be 14d3 41bd 9b56 7c3d 2a82 d83d
000000e0: 8a56 053e c22d 15be ff68 46be 7023 1cbe
000000f0: 67be 7ebd b87e c63c 8543 40be b2b7 eb3c
00000100: 5bad b3bd a894 f63d 1f26 163e 25d2 be3d
00000110: 3119 433e 19b8 c63d 3fbb 2dbe f3be 133e
00000120: 0573 80bd 1d22 553e 801c b7bd 62d7 123d
00000130: 5cae 6dbe c1a0 c7bd 6f3a b9bd d0eb 613e
00000140: b995 b0bd 8228 3cbd b2dd 003e 257e 8c3c
00000150: fe1c 67bd b60c fb3c 8820 4c3d 027b 9bbe
00000160: d1df 063e 47d2 7dbe 9011 39be ad37 12be
00000170: b4af 5fbd f553 303e cb0b d9bd 20f9 35be
00000180: 900d 5fb9 c623 313e 293c f03d ce46 80bc
00000190: 2ec3 5c3d c2cd bd3d f372 cf3d 6039 abbd
000001a0: a522 f33d 8f8d 103e d21c 92bd d1ec 5c3d
000001b0: c247 193d a5d4 5a3d 01e0 1e3b 4065 2e3e
000001c0: 6e43 8b3d 3867 69bc 52de d5bd f6fc 8c3d
000001d0: 065b 893d b02c b1bc 6176 66be 41e3 743c
000001e0: b488 b2bd 8427 173c 75f3 893d 1053 c9bd
000001f0: 53a8 133d e8e0 32be 3e11 3abe efc0 e73d
00000200: 8a3b 46be c6a4 5cbd aa4c d5bc 5fff 47bd
00000210: 27d5 703c 0ea5 2ebe 0dd9 703e 429b 92bd
00000220: 37c7 393e 752b 503c d05d 313e 27ac 443e
00000230: ac8c 083d edad 23be 2139 073e 0166 b7bb
00000240: ea64 63bd bdf3 073e 99f6 e93c 01b1 023d
00000250: 8345 9ebd 598c e43d c220 823d 3cab 423e
00000260: 94b7 3b3d 879d 0b3e 41d7 d33d 3346 f93d
00000270: 360d 27be fa5d dc3d a3ee 30be 7293 b3bd
00000280: df5e f43c 72a6 273d c3e4 363c 1ac6 283b
00000290: e2a6 a6bd eae3 d2bd c06c e73d 4536 91bd
000002a0: 7dbe dbbc e45b d6bc e9d9 903d 1f3f aebd
000002b0: b60a 0e3c 7424 513b 5b68 ecbd e962 8abd
000002c0: b059 98bd 2176 83bd 0176 fcbd 6aef 123e
000002d0: c25a 213e df90 613d ef0e 923d 4b7f f83d
000002e0: f6ad 04be a04a f13d 7514 253e dd35 3c3e
000002f0: 81b5 9abd 0b10 183e 8fe6 11bd 7448 9cbd
00000300: 6071 1dbe 35ac d73c 5163 a13b a58e edbd
00000310: 4576 e93d f1b3 8a3d 4695 1ebe 9148 0d3e
00000320: d0b3 103e 9639 50be a8fd e53c 459c c5bd
00000330: 176b 323d 3512 35be 03b7 993c 4a36 58bd
00000340: 0c8d 3ebd 0af4 a4bd 4b51 d8bd 9707 acbd
00000350: ccb9 50be 8ace b33c 1517 c53d d318 5dbb
00000360: c5b4 b83d 356d 833d f426 013e ccbc ff3d
00000370: 5f7b 0cbe 1a9a 023e 089f 13be ec2d b63d
00000380: 3d53 113d e37b cabc 5fe1 b73d 6525 373c
00000390: a0e1 13be 3160 f53d 752f c4bd 22ec d7bd
000003a0: 92ab c7bd cb4f 19bc 1e5c 2cbe fb5f 033e
000003b0: 2546 33be 7be0 a93d f394 f3bc 14c1 b73d
000003c0: 393d 1f3e 92cc d6bd 006d 4dbe ab5a 3abe
000003d0: 7d9f fdbd 8a34 1b3d 5504 0abd 0b8a 063e
000003e0: 7381 d0bc a18d ad3c 1267 eebd eb29 203e
000003f0: 18a4 c1bd 509e 40bd 1758 f2bd 3e60 aebd

sequential/dense/MatMul_bias f4 [128]
0.0722714 -0.012495456 0.13256651 -0.06965108 -0.13687986 -0.1253338 0.08921651 -0.03168098
0.21360688 0.026756404 -0.11578752 -0.204892 0.04274974 0.19295795 -0.046162806 0.0061678933
0.086697444 -0.056020826 -0.030694172 -0.0059045106 0.067915596 0.012414271 -0.023723938 -0.01682769
0.06576235 0.046319578 -0.06995761 -0.19869462 0.038728133 0.057870038 0.10568518 0.06424274
0.03326627 0.117263794 0.017254768 0.103227474 0.18029179 0.07713924 0.114558235 -0.11022695
0.12898922 0.09932932 -0.083016545 0.12764768 0.10398714 0.0260521 -0.055912856 0.13611658
-0.0017145688 0.18809876 -0.0092656575 0.13494778 -0.128114 0.03588725 -0.0423274 0.068556145
-0.10380412 0.08453678 0.17892508 0.21354713 0.08243868 0.078370996 -0.10192391 0.08141044
0.14359362 -0.13787149 -0.065607704 0.12813911 0.22658908 0.08526954 0.22304839 -0.05062024
0.011240388 0.145583 0.11686474 0.1495629 -0.048360135 0.05914418 -0.15308945 0.19131735
0.07974354 0.18413523 0.04177088 0.06284032 -0.043020252 -0.08802946 0.13418299 0.12702252
0.15576875 -0.0217579 0.07682125 0.14978746 -0.05514626 -0.06586335 0.13354975 0.019094521
0.051498085 -0.050075237 0.14645074 -0.077188246 -0.051715747 -0.004841663 -0.06598431 0.023172472
-0.04520069 -0.047138363 0.11043826 0.12788408 -0.036760382 0.18023159 0.11594439 -0.028226282
-0.0120691 -0.008166088 0.0024367007 0.14051063 0.027665677 0.025374152 0.062403023 0.013348245
-0.016580455 0.11339439 0.041385878 0.056229755 -0.06675922 0.008271623 0.14799377 0.13997492
00000000: 0703 943d beb9 4cbc 84bf 073e 3aa5 8ebd
00000010: 3c2a 0cbe 8157 00be 25b7 b63d eac3 01bd
00000020: c3bb 5a3e 3f30 db3c 0222 edbd 35cf 51be
00000030: 5a1a 2f3d c596 453e 3615 3dbd 0a1c ca3b
00000040: 6e8e b13d 1876 65bd 5872 fbbc a07a c1bb
00000050: 5517 8b3d 3a65 4b3c b458 c2bc 39da 89bc
00000060: 69ae 863d 99b9 3d3d ef45 8fbd 9a76 4bbe
00000070: 64a1 1e3d 2209 6d3d 7971 d83d b391 833d
00000080: 3642 083d 0028 f03d df59 8d3c ed68 d33d
00000090: 699e 383e 2efb 9d3d 829d ea3d abbe e1bd
000000a0: c015 043e 2c6d cb3d 9404 aabd 13b6 023e
000000b0: 36f7 d43d 376b d53c e104 65bd 2562 0b3e
000000c0: 62bb e0ba f69c 403e fcce 17bc c02f 0a3e
000000d0: 5130 03be 82fe 123d 7f5f 2dbd 2a67 8c3d
000000e0: 4197 d4bd 9f21 ad3d 2338 373e 19ac 5a3e
000000f0: 9cd5 a83d f980 a03d 7cbd d0bd 84ba a63d
00000100: 350a 133e 2f2e 0dbe 555d 86bd e636 033e
00000110: f806 683e cca1 ae3d cc66 643e 2b57 4fbd
00000120: 9b29 383c b613 153e c856 ef3d 0427 193e
00000130: 4715 46bd 2b41 723d 7bc3 1cbe b2e8 433e
00000140: 9550 a33d f28d 3c3e f117 2b3d 6db2 803d
00000150: 0136 30bd ca48 b4bd 4467 093e 3112 023e
00000160: d881 1f3e a03d b2bc 7654 9d3d e261 193e
00000170: 0be1 61bd 5de3 86bd 44c1 083e 1d6c 9c3c
00000180: a8ef 523d b11b 4dbd 2ff7 153e df14 9ebd
00000190: e4d3 53bd d0a6 9ebb c822 87bd 32d4 bd3c
000001a0: 5c24 39bd 2814 41bd 742d e23d 0bf4 023e
000001b0: 0e92 16bd a18e 383e 4174 ed3d ce3a e7bc
000001c0: 79bd 45bc 0ecb 05bc 0eb1 1f3b 05e2 0f3e
000001d0: 21a3 e23c 74dd cf3c 509a 7f3d 99b2 5a3c
000001e0: bcd3 87bc 513b e83d 3d84 293d 2c51 663d
000001f0: 0fb9 88bd b485 073c ae8b 173e 9655 0f3e

sequential/dense_1/MatMul/ReadVariableOp/transpose f4 [64, 128]
0.13653594 -0.12397551 -0.13584815 0.020692645 0.16830489 -0.04645358 0.048211284 0.0771785
0.02849297 0.15315764 0.16098064 0.082998924 0.16000047 0.07295982 -0.157359 -0.13979943
-0.13674335 -0.10437706 -0.16982335 -0.12973776 0.119747005 -0.120523736 0.0008916953 0.08212358
-0.17517331 -0.15950564 -0.05998679 0.16767958 0.09056773 -0.0056336885 -0.019478649 -0.10378468
-0.091443785 0.09068582 0.07452768 -0.18136115 0.12499489 -0.120333545 -0.13755015 -0.035678405
-0.123233475 0.120748006 -0.014226447 0.084520295 -0.019311152 0.065704495 0.13354847 -0.09489021
-0.12012384 0.06751952 0.16743541 -0.083719075 -0.022314193 -0.14429162 0.04873985 0.045142405
-0.056838818 0.12192052 -0.094315 -0.04323678 -0.20820443 -0.069559745 -0.003953568 -0.07007947
0.14187802 -0.0016388921 -0.013931753 0.0663174 -0.1535403 0.17732255 0.061390426 0.1588312
-0.06521635 -0.11569434 0.14432435 0.14090987 0.15247963 -0.13158992 0.016720392 0.13344835
0.13205807 0.11136134 -0.12080206 -0.13927895 -0.052198853 0.076448694 -0.19091086 -0.057004124
-0.17904298 -0.17255425 -0.17866331 0.1388333 0.111261934 0.16255052 0.14558622 0.10025165
0.001471498 -0.069921784 -0.17360593 -0.03334475 -0.11464842 0.016661825 -0.026980473 -0.10693647
-0.03943348 -0.108407594 -0.17613065 -0.1480887 -0.12133074 0.1531425 0.15109408 0.03840193
-0.0052620685 0.08931049 -0.025238214 0.036440965 0.022188554 -0.15775478 -0.046159994 -0.17524512
0.033482693 0.08996356 -0.0043742345 -0.048173886 0.12832056 -0.080459826 -0.18617834 -0.06813033
0.050075207 -0.09476806 0.15611373 0.0011375411 0.006929085 0.059516326 -0.09136309 0.13595234
-0.12765464 -0.08775939 0.10843549 -0.16700412 -0.13208817 -0.06757938 0.047592744 -0.13280603
0.08582313 -0.16080049 -0.071559764 -0.10930276 0.016569082 0.02839249 0.03010605 0.036598846
-0.06564748 0.10642669 -0.13490966 0.16789451 0.1525151 0.11531906 0.079662904 -0.04692885
0.11410818 0.15754631 -0.020913763 0.11468296 -0.107173815 -0.042414613 0.14339219 -0.018479008
-0.057151865 0.04681872 -0.1349994 0.0013296299 -0.16108947 -0.10673685 -0.06575719 0.14692119
-0.02387506 0.03262061 0.122623816 -0.020205764 0.044208642 -0.08208638 0.1201378 -0.0017758257
-0.1747688 0.056100525 -0.15445618 0.13922094 -0.132377 0.052103605 0.050726548 -0.18004915
0.13113235 -0.12601824 -0.1658941 0.056493267 0.109742366 0.16497041 0.008004927 -0.17082049
0.075423196 -0.049208075 0.043945454 0.15464374 -0.052482393 0.117001966 -0.14481096 0.077686906
0.020080233 -0.061835147 -0.06041143 -0.10718569 -0.16792692 -0.093366325 -0.13566251 -0.1355689
-0.18140098 -0.087426364 -0.06543097 -0.126711 0.015658446 -0.047997627 -0.17504464 -0.15511405
0.06415942 -0.027317014 -0.053540863 -0.11290599 -0.16251127 -0.007104712 -0.12847242 0.00701697
-0.015113354 0.120147124 0.15702802 0.13009545 0.06455205 -0.13088804 -0.1239585 0.15250537
-0.12958382 -0.062296495 -0.17283182 -0.046794966 -0.115742065 -0.13222586 -0.13795768 0.044938438
-0.17667656 0.1003548 -0.020950325 0.0274424 0.035388943 -0.122290246 -0.17972232 0.16292402
00000000: 14d0 0b3e dfe6 fdbd c71b 0bbe 9f83 a93c
00000010: 1e58 2c3e 1c46 3ebd 3279 453d c30f 9e3d
00000020: 176a e93c 5bd5 1c3e 1cd8 243e 57fb a93d
00000030: 2ad7 233e f56b 953d b822 21be 9527 0fbe
00000040: 7306 0cbe a4c3 d5bd 2ce6 2dbe fad9 04be
00000050: eb3d f53d 26d5 f6bd a9c0 693a 6830 a83d
00000060: a260 33be 7255 23be b5b4 75bd 32b4 2b3e
00000070: 937b b93d ce9a b8bb b091 9fbc 108d d4bd
00000080: e146 bbbd 7db9 b93d f8a1 983d bdb6 39be
00000090: 52fd ff3d 6f71 f6bd f2d9 0cbe 8523 12bd
000000a0: d561 fcbd bb4a f73d 0b16 69bc fa18 ad3d
000000b0: 6c32 9ebc 1490 863d eec0 083e cc55 c2bd
000000c0: 7d03 f6bd ad47 8a3d 3074 2b3e e874 abbd
000000d0: 41cc b6bc 2fc1 13be 70a3 473d 3ee7 383d
000000e0: d2cf 68bd 77b1 f93d 3928 c1bd 0d19 31bd
000000f0: 8b33 55be 5775 8ebd ef8c 81bb d385 8fbd
00000100: 7948 113e 18d0 d6ba 0242 64bc 6bd1 873d
00000110: ab39 1dbe 0b94 353e 8774 7b3d a5a4 223e
00000120: 2690 85bd 27f1 ecbd c3c9 133e ad4a 103e
00000130: 9f23 1c3e 82bf 06be 34f9 883c afa6 083e
00000140: 3b3a 073e 6a11 e43d 1267 f7bd 249f 0ebe
00000150: 77ce 55bd 2291 9c3d 237e 43be 287d 69bd
00000160: 0b57 37be 10b2 30be 84f3 36be 512a 0e3e
00000170: 4cdd e33d a573 263e 8e14 153e bd50 cd3d
00000180: 48df c03a 2733 8fbd c1c5 31be 8194 08bd
00000190: cacc eabd 617e 883c 2706 ddbc 8201 dbbd
000001a0: 0085 21bd cd04 debd 985b 34be 90a4 17be
000001b0: 407c f8bd 63d1 1c3e 68b8 1a3e 584b 1d3d
000001c0: 6e6d acbb 6be8 b63d 5fc0 cebc 1f43 153d
000001d0: c5c4 b53c 788a 21be 4312 3dbd 7573 33be
000001e0: 2625 093d d13e b83d bd55 8fbb fb51 45bd
000001f0: 7766 033e 1fc8 a4bd 89a5 3ebe ea87 8bbd
00000200: a91b 4d3d c215 c2bd 47dc 1f3e 8c19 953a
00000210: 610d e33b 64c7 733d 921c bbbd 1737 0b3e
00000220: e6b7 02be 32bb b3bd 6d13 de3d 2103 2bbe
00000230: 1f42 07be 0f67 8abd 9cf0 423d 4efe 07be
00000240: 0ac4 af3d e2a8 24be ed8d 92bd 20da dfbd
00000250: e2bb 873c 5e97 e83c f7a0 f63c ace8 153d
00000260: 3072 86bd 3df6 d93d c225 0abe 8aec 2b3e
00000270: eb2c 1c3e 662c ec3d 4e26 a33d 7738 40bd
00000280: 8db1 e93d d253 213e 5753 abbc e6de ea3d
00000290: f27d dbbd f2ba 2dbd 67d5 123e 4a61 97bc
000002a0: 1318 6abd fcc4 3f3d 483d 0abe fa46 ae3a
000002b0: a3f4 24be da98 dabd b5ab 86bd 8272 163e
000002c0: a195 c3bc 309d 053d 3222 fb3d 8f86 a5bc
000002d0: 1f14 353d e71c a8bd cf0a f63d d3c2 e8ba
000002e0: 98f6 32be aac9 653d c329 1ebe ef8f 0e3e
000002f0: d68d 07be 976a 553d a4c6 4f3d ce5e 38be
00000300: 8f47 063e ed0a 01be 25e0 29be 7c65 673d
00000310: 9bc0 e03d 01ee 283e 1927 033c 91eb 2ebe
00000320: 7a77 9a3d 688e 49bd 2600 343d ee5a 1e3e
00000330: c7f7 56bd ba9e ef3d 5349 14be 501a 9f3d
00000340: 4d7f a43c da46 7dbd fa71 77bd 2c84 dbbd
00000350: 09f5 2bbe d836 bfbd 1deb 0abe 93d2 0abe
00000360: 2ec1 39be 980c b3bd ac00 86bd 87c0 01be
00000370: 2446 803c 2999 44bd e73e 33be 38d6 1ebe
00000380: 0466 833d eec7 dfbc aa4d 5bbd 413b e7bd
00000390: 5b69 26be a5ce e8bb 468e 03be 9cee e53b
000003a0: 009e 77bc b20f f63d f4cb 203e be37 053e
000003b0: dd33 843d 8407 06be f4dd fdbd 5e2a 1c3e
000003c0: 9fb1 04be 9c2a 7fbd d3fa 30be 14ac 3fbd
000003d0: 2d0a edbd 3766 07be c744 0dbe 5e11 383d
000003e0: b3ea 34be d186 cd3d 04a0 abbc e2ce e03c
000003f0: fff3 103d 4f73 fabd 2109 38be 8ed5 263e

sequential/dense_1/MatMul_bias f4 [64]
-0.039312303 0.0037467715 -0.16457433 -0.012385759 0.22007306 -0.034868587 -0.022152334 0.16982147
0.14296767 -0.042138893 0.20302458 -0.14349978 0.19998294 -0.12962702 -0.052283306 -0.018296534
-0.084301844 -0.070994996 0.19390717 -0.033691127 -0.05696286 -0.035309922 -0.018796664 0.14644325
0.13422124 -0.041372243 -0.023561286 0.20587398 0.15464038 -0.033608187 0.1758222 -0.0009687203
-0.0038533048 -0.0234396 -0.08244165 -0.030139117 0.07754502 -0.06542713 -0.012222808 -0.065110974
0.22477466 -0.011615137 0.08940097 0.18806693 0.21138178 0.10407948 -0.023025718 0.13738202
0.17272298 0.0106938025 0.21824001 -0.020032976 -0.20986977 -0.03750941 0.19626169 -0.051309638
-0.035072435 0.14814183 0.17314881 -0.04310081 0.20044057 0.2377981 -0.028724752 0.17015654
00000000: f005 21bd 658c 753b 2c86 28be a3ed 4abc
00000010: d55a 613e 5dd2 0ebd d078 b5bc aee5 2d3e
00000020: 1e66 123e d599 2cbd ade5 4f3e 9bf1 12be
00000030: 54c8 4c3e f2bc 04be 0527 56bd 9de2 95bc
00000040: 72a6 acbd d365 91bd 9a8f 463e b5ff 09bd
00000050: e351 69bd 23a1 10bd 76fb 99bc 38f5 153e
00000060: 4b71 093e f175 29bd 9903 c1bc a1d0 523e
00000070: 0c5a 1e3e bda8 09bd bc0a 343e b8f1 7dba
00000080: ba87 7cbb 6704 c0bc 2bd7 a8bd 4fe6 f6bc
00000090: eccf 9e3d a9fe 85bd 2c42 48bc e758 85bd
000000a0: 542b 663e 6a4d 3ebc db17 b73d 9e94 403e
000000b0: 7774 583e 9f27 d53d 6ea0 bcbc dfad 0c3e
000000c0: 4bde 303e 0f35 2f3c 4f7a 5f3e 321c a4bc
000000d0: 1ae8 56be 78a3 19bd d3f8 483e 0e2a 52bd
000000e0: 1da8 0fbd 7eb2 173e ec4d 313e 7a8a 30bd
000000f0: 4b40 4d3e 5881 733e 2c50 ebbc 843d 2e3e

sequential/dense_2/MatMul/ReadVariableOp/transpose f4 [2, 64]
-0.049046516 0.16046946 0.03348212 0.29152682 -0.124766245 -0.074704155 -0.19781925 -0.11240083
-0.12836741 -0.14350091 0.22881469 -0.06501079 0.08106183 0.10564082 0.09802674 0.08057835
0.02627843 0.2425529 -0.26612747 -0.24014333 0.09451123 0.04277635 -0.1899583 0.1786265
-0.068902016 -0.086740725 0.1175744 0.30987537 0.24533564 -0.22030841 0.28207254 -0.048631314
0.06815086 -0.29359072 -0.23734868 0.11332495 -0.08945781 -0.07738396 0.09282675 -0.07145042
0.205821 0.06145651 0.0996622 0.29244304 -0.33167297 -0.15364884 0.038084455 0.24751548
0.26582438 -0.007192686 -0.29999417 0.2401538 0.09823036 -0.11255279 0.0042591314 -0.121027045
0.107863985 0.042127896 0.14955264 -0.19935597 -0.1084263 -0.07784055 -0.26253575 0.15687238
0.21562177 -0.05980136 -0.11026745 -0.008309348 -0.27676508 0.21078476 -0.16896957 0.30194417
0.096849196 -0.0082205115 -0.21222684 -0.11938907 -0.17740916 -0.055732287 -0.027910963 -0.26885447
-0.1236015 -0.13907087 0.16171002 0.13058122 -0.07578433 0.15010944 0.14413826 0.24693927
-0.08337419 -0.17511399 -0.18501362 -0.016190315 0.2727679 -0.12612446 0.017900858 -0.25505903
-0.008973753 0.07706387 0.112522535 -0.2106596 0.08906383 -0.059594784 0.065437384 -0.096306585
-0.19184296 0.18757023 0.18331334 -0.16261153 -0.20270018 -0.11231249 0.06042613 0.011555876
0.1846428 -0.026013331 0.10419039 -0.18956146 0.15028827 -0.23584451 -0.2517166 0.2545846
-0.045886695 0.32540923 -0.026863521 0.28779697 0.3499728 -0.3983085 -0.094017304 0.18227038
00000000: 00e5 48bd 1b52 243e 8c24 093d 0143 953e
00000010: 7285 ffbd 7efe 98bd 2191 4abe 6832 e6bd
00000020: bf72 03be e7f1 12be 664e 6a3e 6124 85bd
00000030: bf03 a63d 375a d83d 3ec2 c83d 4306 a53d
00000040: dd45 d73c ca5f 783e dc41 88be 22e8 75be
00000050: 1b8f c13d 4136 2f3d 6e84 42be dde9 363e
00000060: 801c 8dbd 1fa5 b1bd d9ca f03d fca7 9e3e
00000070: 4439 7b3e 8798 61be d06b 903e a131 47bd
00000080: ae92 8b3d 8651 96be 880b 73be e916 e83d
00000090: a835 b7bd 7b7b 9ebd f31b be3d 9954 92bd
000000a0: bdc2 523e d2b9 7b3d b21b cc3d 18bb 953e
000000b0: 0ad1 a9be 1f56 1dbe 72fe 1b3d b374 7d3e
000000c0: 221a 883e a0b0 ebbb d698 99be e1ea 753e
000000d0: 002d c93d 1482 e6bd 2f90 8b3b 07dd f7bd
000000e0: cbe7 dc3d 4d8e 2c3d 5424 193e f923 4cbe
000000f0: 9c0e debd de6a 9fbd 166b 86be 27a3 203e
00000100: f4cb 5c3e 45f2 74bd e7d3 e1bd ee23 08bc
00000110: 27b4 8dbe f6d7 573e 5c06 2dbe 6d98 9a3e
00000120: df58 c63d 53af 06bc fe51 59be 4282 f4bd
00000130: bfaa 35be 8a47 64bd 88a5 e4bc 4ba7 89be
00000140: c922 fdbd 9868 0ebe 5097 253e 15b7 053e
00000150: d134 9bbd 4ab6 193e fb98 133e a6dd 7c3e
00000160: 16c0 aabd 1551 33be 3674 3dbe 8da1 84bc
00000170: 3ca8 8b3e c526 01be d2a4 923c 1997 82be
00000180: a606 13bc aad3 9d3d 3772 e63d 26b7 57be
00000190: 1967 b63d a919 74bd 0904 863d 633c c5bd
000001a0: 7b72 44be 6912 403e 7eb6 3b3e a383 26be
000001b0: a390 4fbe 1704 e6bd 6481 773d db54 3d3c
000001c0: 0113 3d3e e919 d5bc c561 d53d 661c 42be
000001d0: 2be5 193e 3981 71be 00e1 80be ea58 823e
000001e0: b0f3 3bbd 0a9c a63e e310 dcbc 205a 933e
000001f0: a32f b33e 17ef cbbe 258c c0bd 16a5 3a3e

sequential/dense_2/MatMul_bias f4 [2]
-0.06428855 -0.07552799
00000000: b7a9 83bd 6bae 9abd
