code/config_default/neuralnets/CNN_Analog-Readout_Version-6.2.0.tflite (tflite, 315584 bytes, 14 tensors)

sequential/batch_normalization/FusedBatchNormV3_add_param f4 [3]
-0.65426964 -0.5039285 -0.43091562
00000000: 377e 27bf 7501 01bf f9a0 dcbe

sequential/batch_normalization/FusedBatchNormV3_mul_0_param f4 [3]
0.004609583 0.0034845425 0.0030221553
00000000: fc0b 973b ec5c 643b 5a0f 463b

sequential/conv2d/Conv2D/ReadVariableOp f4 [64, 5, 5, 3]
0.037685473 0.10891207 0.020939952 -0.10939891 0.020608753 -0.024697747 -0.1283316 -0.04577591
-0.042694308 -0.0907896 -0.05613974 0.04065203 0.15049377 0.016613608 -0.00081684685 0.15758377
0.1546896 0.1484212 -0.044218633 0.017903712 0.017702296 0.033657473 0.024266664 0.10673866
-0.035312418 0.039228715 0.01855288 0.073349945 0.078666195 0.008314828 0.015882963 0.027775422
0.06515278 -0.21027812 -0.124724716 -0.07745368 -0.098106734 -0.096529976 -0.06495502 0.07393868
-0.050797533 0.0013434816 0.015158677 -0.0178423 0.017688293 0.0011205835 0.12083804 0.13245313
-0.06513885 -0.045273233 0.065626435 0.09178323 0.03496514 0.16298774 -0.06469841 -0.08257024
0.013102364 -0.011657122 0.09148571 0.115014374 -0.12726006 0.0116508035 0.112800986 -0.24129637
-0.06260711 -0.0057150815 -0.057948105 -0.041527234 0.059847806 -0.17139415 -0.09178831 -0.044514675
-0.036241867 0.073389195 0.079063885 0.004074976 -0.0960939 -0.030387284 -0.02869706 -0.06920685
-0.13636674 0.047007166 -0.023424078 -0.050598815 -0.0891731 -0.02241705 -0.0797929 -0.11829098
0.0028807507 -0.06366105 0.04948199 0.025476294 -0.043543715 -0.04346268 -0.0092821885 -0.091529176
-0.01469287 -0.021376623 -0.0153219765 0.054334465 0.06846348 0.015272244 0.051987275 -0.014541249
0.06868855 0.06866533 0.0671776 0.054089375 0.08287378 0.069552094 0.054658026 0.09557355
0.060851 0.07255664 0.06223156 0.11416608 0.07601226 -0.09869538 -0.08294455 0.025520084
-0.049941704 0.0070673935 -0.08413709 -0.111238666 -0.017539276 -0.037431344 0.092525035 0.09081606
0.019991556 -0.016733622 -0.064074494 -0.04578491 0.10727228 0.064550325 0.05824647 0.0042006974
0.11233007 0.09172224 0.04413441 0.08276993 0.0917374 -0.2009229 -0.18706834 -0.085546024
-0.056991138 0.0075111054 -0.044350013 0.0007327091 -0.052936837 0.01436866 0.027381374 -0.21997498
-0.23457648 0.15322962 -0.028776973 -0.11761469 0.030708326 0.09598414 0.041817874 -0.080072165
0.03903643 0.05650191 -0.08085834 0.11428869 0.1560674 0.050795127 -0.117504194 -0.115404114
0.042279027 -0.18236668 -0.20223173 0.087684125 0.123163246 0.118931115 -0.10791258 0.0077607697
0.08388617 -0.04296509 0.15095861 0.11146888 -0.0119695645 -0.17677295 -0.17936894 0.03875793
-0.112621866 -0.20203544 0.137211 0.21323167 0.11452301 -0.1486806 -0.049562495 -0.033911057
0.009690522 0.15647162 0.12591001 -0.016622774 -0.07537705 -0.026365992 0.046009533 0.04884165
-0.008312707 0.048609156 0.15530746 0.10597669 -0.03836876 -0.03517721 -0.07078398 -0.06902514
-0.006545961 0.07317348 -0.061882623 -0.05314005 -0.029112378 0.029976409 0.022581875 -0.03618858
0.018327814 0.065329984 0.026863573 0.013614361 -0.014397326 -0.056627974 -0.02171399 -0.05736766
-0.058636516 0.037556503 -0.017456394 0.1045808 0.007895085 0.015717264 0.12918934 -0.0052886154
-0.014915661 0.04895916 -0.053655732 -0.03509123 -0.018054955 0.06409467 -0.056224834 -0.016079204
-0.15249173 0.014195612 0.07474913 0.014306572 -0.0015540911 0.049395185 0.106368184 0.09197259
0.07006257 -0.022437025 -0.01319915 -0.08632679 0.054347236 -0.06395534 -0.109513715 -0.03128559
00000000: 155c 1a3d 4b0d df3d 438a ab3c 890c e0bd
00000010: b0d3 a83c ee52 cabc 5c69 03be 857f 3bbd
00000020: 3ae0 2ebd e6ef b9bd c9f2 65bd be82 263d
00000030: 0a1b 1a3e 4319 883c aa21 56ba a45d 213e
00000040: f366 1e3e bafb 173e 991e 35bd ceaa 923c
00000050: 6804 913c 6bdc 093d e2ca c63c cc99 da3d
00000060: c1a3 10bd 4aae 203d 36fc 973c 7f38 963d
00000070: be1b a13d eb3a 083c fd1c 823c 4889 e33c
00000080: d26e 853d 2653 57be ac6f ffbd 09a0 9ebd
00000090: 2fec c8bd 82b1 c5bd 2307 85bd 2a6d 973d
000000a0: 1311 50bd c317 b03a 195c 783c 042a 92bc
000000b0: 0ae7 903c 8be0 923a ef79 f73d cba1 073e
000000c0: 8467 85bd 6d70 39bd 2767 863d d9f8 bb3d
000000d0: 9b37 0f3d 42e6 263e 9a80 84bd 961a a9bd
000000e0: 4cab 563c 83fd 3ebc dc5c bb3d a88c eb3d
000000f0: 7650 02be 03e3 3e3c 3404 e73d 6516 77be
00000100: 2838 80bd 9445 bbbb fe5a 6dbd 7618 2abd
00000110: f922 753d f381 2fbe 82fb bbbd 0555 36bd
00000120: 5a72 14bd 134d 963d 3fec a13d 6087 853b
00000130: e1cc c4bd c1ee f8bc 1916 ebbc 52bc 8dbd
00000140: b9a3 0bbe 968a 403d dae3 bfbc b440 4fbd
00000150: 63a0 b6bd f6a3 b7bc 766a a3bd 8b42 f2bd
00000160: faca 3c3b b960 82bd a1ad 4a3d a9b3 d03c
00000170: e55a 32bd ec05 32bd 5214 18bc a673 bbbd
00000180: 5dba 70bc 071e afbc 0709 7bbc d18d 5e3d
00000190: 9536 8c3d 6f38 7a3c 9cf0 543d 6b3e 6ebc
000001a0: 95ac 8c3d 69a0 8c3d 6994 893d d28c 5d3d
000001b0: bab9 a93d 5471 8e3d 18e1 5f3d 11bc c33d
000001c0: e63e 793d 9398 943d 85e6 7e3d e8cf e93d
000001d0: 51ac 9b3d ce20 cabd d5de a9bd 7f0f d13c
000001e0: ac8f 4cbd 9895 e73b 1150 acbd 19d1 e3bd
000001f0: 87ae 8fbc 9c51 19bd c47d bd3d c5fd b93d
00000200: 55c5 a33c f314 89bc 7d39 83bd f588 3bbd
00000210: 92b1 db3d f632 843d da93 6e3d 01a6 893b
00000220: 4f0d e63d dfd8 bb3d 48c6 343d 4883 a93d
00000230: d1e0 bb3d bcbe 4dbe d88e 3fbe c132 afbd
00000240: 8a6f 69bd b81f f63b 5ca8 35bd 4613 403a
00000250: 4cd4 58bd 876a 6b3c e74e e03c 1f41 61be
00000260: d134 70be 3ae8 1c3e b0bd ebbc f8df f0bd
00000270: 0790 fb3c 5593 c43d 3849 2b3d e0fc a3bd
00000280: aae4 1f3d 8c6e 673d 0f99 a5bd 3010 ea3d
00000290: 22d0 1f3e 8d0e 503d 0aa6 f0bd fe58 ecbd
000002a0: c62c 2d3d 55be 3abe d615 4fbe bc93 b33d
000002b0: 033d fc3d 2892 f33d 4501 ddbd 0e4e fe3b
000002c0: 83cc ab3d 2afc 2fbd e594 1a3e cc49 e43d
000002d0: fe1b 44bc f803 35be 7eac 37be a3c0 1e3d
000002e0: 4ba6 e6bd 61e2 4ebe 0a81 0c3e 6759 5a3e
000002f0: 0a8b ea3d ba3f 18be 0b02 4bbd 52e6 0abd
00000300: ffc4 1e3c 193a 203e 8eee 003e 7c2c 88bc
00000310: 485f 9abd 7efd d7bc 7e74 3c3d 2f0e 483d
00000320: 0532 08bc 651a 473d eb08 1f3e 4f0a d93d
00000330: 9028 1dbd fa15 10bd 31f7 90bd 0d5d 8dbd
00000340: 807f d6bb fadb 953d a278 7dbd 62a9 59bd
00000350: 157d eebc 1691 f53c a0fd b83c 7a3a 14bd
00000360: 3624 963c bacb 853d ff10 dc3c c50e 5f3c
00000370: c3e2 6bbc bcf2 67bd 8ae1 b1bc 5afa 6abd
00000380: d82c 70bd d9d4 193d b600 8fbc 752e d63d
00000390: 635a 013c 7ec1 803c 364a 043e 1f4c adbb
000003a0: d160 74bc 6689 483d 1dc6 5bbd d2bb 0fbd
000003b0: fce7 93bc 1144 833d 034c 66bd 89b8 83bc
000003c0: cb26 1cbe b694 683c 1216 993d 1d66 6a3c
000003d0: a5b2 cbba 9b52 4a3d 90d7 d93d 205c bc3d
000003e0: f77c 8f3d dacd b7bc 3f41 58bc 1acc b0bd
000003f0: 359b 5e3d 04fb 82bd ba48 e0bd 5225 00bd

sequential/conv2d/Conv2D_bias f4 [64]
-0.18271163 -0.11604759 -0.1863726 -0.14375257 -0.14044338 -0.11621877 -0.068637215 -0.06927993
-0.06294868 -0.02527176 -0.10950558 -0.081894815 -0.14870435 -0.20300603 -0.10015229 -0.19151129
-0.17498574 -0.06068226 -0.077226885 -0.14309256 -0.06138174 -0.19195068 -0.15215161 -0.15593678
-0.1691561 -0.088086225 -0.038990516 -0.14869414 -0.09586346 -0.17586616 -0.020559343 -0.030541375
-0.16814935 -0.15937717 -0.12811205 -0.091587774 -0.12306781 -0.04877227 -0.15271461 -0.08731109
-0.112608574 -0.17960474 -0.082030974 -0.14002064 -0.11989288 -0.235477 -0.08976782 -0.1203705
-0.087410346 -0.1234218 -0.11035903 -0.1077475 -0.109537296 -0.15974808 -0.050648127 -0.18667404
-0.07839727 -0.08437994 -0.11174126 -0.1573333 -0.11349812 -0.1375313 -0.18297176 -0.11294438
00000000: c218 3bbe 5caa edbd 75d8 3ebe e033 13be
00000010: 64d0 0fbe 1b04 eebd ab91 8cbd a3e2 8dbd
00000020: 3deb 80bd b906 cfbc 7644 e0bd 78b8 a7bd
00000030: f445 18be d0e0 4fbe a51c cdbd 891b 44be
00000040: 762f 33be f68d 78bd 2129 9ebd db86 12be
00000050: 6b6b 7bbd b88e 44be a2cd 1bbe e4ad 1fbe
00000060: 4237 2dbe 8d66 b4bd 85b4 1fbd 4743 18be
00000070: 1054 c4bd 4216 34be 116c a8bc e831 fabc
00000080: 582f 2cbe c533 23be ce2f 03be 5f92 bbbd
00000090: fa0a fcbd 6fc5 47bd 3861 1cbe 28d0 b2bd
000000a0: 539f e6bd 4eea 37be dbff a7bd 9261 0fbe
000000b0: 668a f5bd e220 71be 31d8 b7bd cf84 f6bd
000000c0: 3204 b3bd 92c4 fcbd ea03 e2bd b9aa dcbd
000000d0: 1755 e0bd 0095 23be 6974 4fbd 7b27 3fbe
000000e0: bf8e a0bd 64cf acbd 9ad8 e4bd fb1b 21be
000000f0: b471 e8bd 01d5 0cbe f35c 3bbe 624f e7bd

sequential/conv2d_1/Conv2D/ReadVariableOp f4 [32, 5, 5, 64]
-0.0025820937 -0.022560801 -0.035781078 -0.050229978 -0.019608164 -0.024585297 0.019456001 -0.052217636
0.030865258 0.03413207 -0.02340198 -0.0105817355 -0.011864692 0.04220818 -0.00090188923 0.02680287
0.024088284 0.052617062 0.030534962 -0.030374235 -0.025276583 -0.012221113 -0.04057513 0.012581994
0.004496614 -0.015480735 -0.036936473 0.036252882 -0.025439473 -0.022879407 -0.002071946 0.0283622
-0.0051189107 -0.039820023 0.006107529 0.004055556 0.029849436 0.0070395446 -0.016313862 -0.04980518
-0.04310793 0.011659335 -0.021688094 -0.011957326 -0.018466055 0.0008706756 -0.01907603 -0.029619392
-0.050219536 0.014492284 -0.04706455 0.039816257 -0.029868037 -0.012545883 0.0589282 0.016696487
0.01272744 0.022693686 -0.042904675 0.042326696 -0.010361146 -0.02065885 -0.008820848 0.011891919
0.02045166 0.019888224 0.03595272 -0.007901149 -0.05033305 0.0049637756 -0.010176834 -0.03476528
-0.057124417 0.0142180845 -0.031967066 -0.031204127 0.018066641 0.0148036275 0.014493082 0.003150437
-0.014646937 -0.018264644 -0.0344474 0.0004365096 -0.03459845 -0.009143346 -0.019377049 -0.03274647
-0.03991981 0.04112254 0.007949027 0.014101835 -0.06370009 0.013163268 -0.057827804 -0.038540184
-0.02953714 0.010381531 0.021475675 -0.0059976154 0.0015720499 0.02564868 -0.016266929 -0.017658241
0.024840511 -0.019560352 0.007889727 0.01150946 -0.02226212 -0.02253483 -0.016679458 0.04113214
-0.06588718 0.031477712 -0.038726464 -0.00059527607 0.01697621 0.037746444 -0.018398365 -0.010495341
0.030784637 -0.047318257 0.032366235 0.039575346 -0.026468959 0.014947465 -9.759342e-05 -0.048502736
0.050747823 -0.045297977 -0.0088220555 -0.041030478 -0.029319005 0.017697638 -0.042122293 -0.020458965
0.0129832 0.009108879 -0.03356709 -0.032974288 -0.029279929 -0.013968745 -0.033867374 0.030229688
0.034145456 -0.012515693 -0.039558034 -0.045342334 0.04493457 0.029191395 0.031968232 -0.008486423
0.045482367 -0.00044534117 -0.01881761 -0.026591584 0.004168048 -0.0019175916 0.015832039 0.011014801
0.0026516 -0.028356066 -0.028681139 -0.0034437135 -0.025498027 0.01823546 -0.017837683 -0.0047059935
0.02267075 -0.027903005 0.045920983 0.008702686 -0.024268702 -0.030630177 0.008440809 0.029569244
-0.015947774 -0.019563505 0.057198822 0.04469263 0.005828121 -0.033389837 -0.0075504514 0.020933587
-0.024103172 -0.045258187 -0.040546052 0.015004772 0.032685418 0.0017501483 0.036870174 0.049060706
0.03176636 0.035877563 0.025963476 0.019172534 -0.03765652 0.0021103178 0.033273757 0.022461997
0.03511092 0.028384306 0.02132691 -0.049281325 -0.02186582 0.03065058 0.025596302 0.005737106
-0.024976268 0.030498218 -0.013751899 -0.0028193996 0.0013061384 -0.055433027 0.04584947 0.036319267
0.036805157 -0.009775887 0.04580163 0.049604416 0.041682623 0.010877192 0.04259058 -0.01955805
-0.008911208 0.029135786 0.017097266 0.0044392305 -0.0063509527 0.02803708 -0.050833672 0.052309267
-0.015833661 0.051308908 -0.033801317 -0.024848955 -0.009245739 0.022939062 -0.016250832 -0.0023442872
0.055780757 0.04628294 -0.0307684 0.030511122 -0.027597774 0.03541046 -0.014356648 -0.020813005
-0.00015316879 0.0067058043 0.029474963 -0.0098574925 0.019322308 0.041956533 0.002027309 0.014765427
00000000: 5838 29bb 6ed1 b8bc 2e8f 12bd f3bd 4dbd
00000010: 4da1 a0bc 1b67 c9bc 3162 9f3c 29e2 55bd
00000020: 23d9 fc3c 12ce 0b3d 82b5 bfbc 045f 2dbc
00000030: 2064 42bc 7ce2 2c3d c36c 6cba b191 db3c
00000040: cb54 c53c fd84 573d 7524 fa3c 63d3 f8bc
00000050: d610 cfbc 103b 48bc 1c32 26bd b524 4e3c
00000060: 5558 933b e9a2 7dbc b34a 17bd e77d 143d
00000070: 7166 d0bc 986d bbbc 7cc9 07bb d857 e83c
00000080: 89bc a7bb 521a 23bd ab21 c83b 78e4 843b
00000090: ce86 f43c fbab e63b a6a4 85bc 8400 4cbd
000000a0: f191 30bd cc06 3f3c 3bab b1bc a9e8 43bc
000000b0: 2046 97bc 0d3e 643a 5645 9cbc 5ea4 f2bc
000000c0: 00b3 4dbd 0b71 6d3c c2c6 40bd 5f16 233d
000000d0: d0ad f4bc 3f8d 4dbc b25e 713d 12c7 883c
000000e0: c186 503c 1ce8 b93c d0bc 2fbd c25e 2d3d
000000f0: ccc1 29bc c03c a9bc 5185 10bc 53d6 423c
00000100: 3d8a a73c a1ec a23c 2943 133d d273 01bc
00000110: 072a 4ebd 2ba7 a23b bcbc 26bc 0a66 0ebd
00000120: 4bfb 69bd f8f2 683c e6ef 02bd cc9f ffbc
00000130: 7e00 943c ea8a 723c 6474 6d3c 9077 4e3b
00000140: b5f9 6fbc bc9f 95bc b818 0dbd 54db e439
00000150: 1bb7 0dbd f9cd 15bc 9ebc 9ebc 2a21 06bd
00000160: f482 23bd 1c70 283d a33c 023c 620b 673c
00000170: 3175 82bd bfaa 573c d9dc 6cbd 50dc 1dbd
00000180: dff7 f1bc 4c17 2a3c c1ed af3c a587 c4bb
00000190: 3e0d ce3a 2e1d d23c 3942 85bc 04a8 90bc
000001a0: 547e cb3c 083d a0bc ea43 013c 2d92 3c3c
000001b0: 0d5f b6bc f79a b8bc 5ca3 88bc 2d7a 283d
000001c0: dcef 86bd c6ee 003d a49f 1ebd 4d0c 1cba
000001d0: b111 8b3c 049c 1a3d 2bb8 96bc a7f4 2bbc
000001e0: 1030 fc3c cad0 41bd 7592 043d c219 223d
000001f0: 6ed5 d8bc 36e6 743c 12ab ccb8 ceaa 46bd
00000200: f3dc 4f3d 5f8a 39bd 628a 10bc 930f 28bd
00000210: 692e f0bc a3fa 903c 6d88 2cbd 8f99 a7bc
00000220: 7db7 543c 683d 153c a57d 09bd 0c10 07bd
00000230: 76dc efbc 2add 64bc 84b8 0abd 40a4 f73c
00000240: 1bdc 0b3d 9f0e 4dbc 9b07 22bd e2b8 39bd
00000250: 500d 383d cb22 ef3c 1ff1 023d a30a 0bbc
00000260: b84b 3a3d ae7c e9b9 6327 9abc 98d6 d9bc
00000270: 1f94 883b b257 fbba 31b2 813c 6d77 343c
00000280: 77c6 2d3b fb4a e8bc b5f4 eabc edaf 61bb
00000290: 3de1 d0bc 8862 953c 5520 92bc bc34 9abb
000002a0: 02b8 b93c d894 e4bc a417 3c3d b695 0e3c
000002b0: 28cf c6bc 23ec fabc 524b 0a3c 333b f23c
000002c0: e8a4 82bc a543 a0bc 5049 6a3d 9f0f 373d
000002d0: d3f9 be3b c8c3 08bd c769 f7bb ea7c ab3c
000002e0: 0474 c5bc a660 39bd 9e13 26bd 93d6 753c
000002f0: 25e1 053d 3b65 e53a 2e05 173d e1f3 483d
00000300: 711d 023d 5af4 123d 5bb1 d43c b80f 9d3c
00000310: b93d 1abd 424d 0a3b 104a 083d 3902 b83c
00000320: 78d0 0f3d 3486 e83c c6b5 ae3c 37db 49bd
00000330: f31f b3bc ed16 fb3c 56af d13c 55fe bb3b
00000340: 089b ccbc 66d7 f93c a54f 61bc adc5 38bb
00000350: bb32 ab3a be0d 63bd a7cc 3b3d 83c3 143d
00000360: 01c1 163d 0b2b 20bc 7d9a 3b3d 002e 4b3d
00000370: 66bb 2a3d 4036 323c 7673 2e3d 3438 a0bc
00000380: 5100 12bc 2cae ee3c 910f 8c3c f776 913b
00000390: a71b d0bb 05ae e53c f836 50bd 3e42 563d
000003a0: 98b5 81bc 4a29 523d 4073 0abd 0990 cbbc
000003b0: 717b 17bc b3ea bb3c 7720 85bc 9da2 19bb
000003c0: 5d7a 643d 2e93 3d3d 030e fcbc 76f2 f93c
000003d0: ba14 e2bc 8f0a 113d 2538 6bbc 0980 aabc
000003e0: ef9b 20b9 5dbc db3b 7a75 f13c 5281 21bc
000003f0: d149 9e3c 9dda 2b3d 9adc 043b b1ea 713c

sequential/conv2d_1/Conv2D_bias f4 [32]
-0.01441442 0.0087334085 -0.016547097 0.0077286446 -0.031621985 -0.0008400377 0.036703575 0.0207198
0.044330973 0.038061224 -0.04312985 -0.0060160174 -0.013521508 -0.01771472 -0.019484919 -0.009280355
-0.02345259 0.012261368 -0.1163405 0.02985453 -0.008082409 -0.004455398 0.055819742 -0.023698382
-0.009903437 -0.010790894 0.063107595 -0.014592323 -0.009279221 -0.16976805 -0.053041473 -0.11594944
00000000: 762a 6cbc 9216 0f3c c78d 87bc 9240 fd3b
00000010: 0e86 01bd fa35 5cba 7d56 163d 92bc a93c
00000020: 6594 353d 16e6 1b3d eda8 30bd 0322 c5bb
00000030: 5189 5dbc 761e 91bc d69e 9fbc a10c 18bc
00000040: a51f c0bc e8e3 483c ee43 eebd 7d91 f43c
00000050: 156c 04bc 96fe 91bb 3ea3 643d 1c23 c2bc
00000060: 0742 22bc 4acc 30bc 8e3e 813d a414 6fbc
00000070: e007 18bc add7 2dbe 0442 59bd e676 edbd

sequential/conv2d_2/Conv2D/ReadVariableOp f4 [32, 3, 3, 32]
0.08624056 0.041308023 -0.04165951 -0.06852785 0.061194394 -0.08955407 -0.063553154 0.023743017
-0.10789424 0.02808658 0.08425044 -0.051592965 0.012617444 -0.08105105 0.035808995 -0.0908051
0.042694755 0.08164167 -0.031645544 0.051461846 0.0899338 -0.05535291 -0.052618697 -0.053344466
0.0025786236 0.0033406364 -0.080470175 -0.099199064 0.05765409 -0.05160331 -0.098419614 -0.012635527
0.04418276 -0.018849906 0.033624247 0.059113547 -0.13734554 -0.043121956 -0.02206713 0.053556137
-0.06457238 -0.07516938 -0.089665286 0.081070416 -0.04379618 -0.08775851 -0.060835134 0.01995504
0.07146804 0.033248097 -0.097230494 0.020921828 -0.09094005 -0.065895066 -0.05855762 -0.07726134
0.07112657 -0.04002597 -0.11796286 0.03049586 0.010163208 -0.033406317 0.0042403894 0.024178302
-0.0997444 -0.0065601906 0.03711483 -0.03199832 -0.051483914 0.014196271 -0.00069756503 -0.054197755
-0.026590815 -0.009253918 -0.091832906 -0.0721719 0.0030913278 0.014268555 -0.10001743 0.05156938
-0.09707312 -0.0123684425 0.017391585 -0.020816647 -0.017907504 -0.0066765514 0.05694334 -0.08365277
0.08840808 0.0479528 -0.052984655 0.03290243 -0.006480542 -0.031229146 0.088212326 -0.028642295
0.06323728 -0.01588679 -0.014519696 0.04874386 -0.15939997 0.042066447 0.083520696 0.049569763
-0.048145723 -0.00991877 0.110440254 -0.10477602 -0.052806146 -0.008003772 0.010172007 0.059173904
0.09546822 0.009015197 -0.026275486 -0.012822667 0.06251594 -0.08279981 0.16090812 -0.031720776
-0.007386509 -0.0871544 -0.12886661 -0.004766384 -0.06836259 0.08386227 -0.03856384 -0.008527905
-0.09426804 -0.016587457 0.004653052 -0.01459136 0.12422902 0.07452824 -0.17545329 -0.03792632
-0.005054513 0.088516526 -0.034497436 -0.041957684 -0.030161554 0.050418604 0.022985289 -0.093704134
-0.0019281965 -0.03645875 -0.0068189343 0.02370365 0.027068375 -0.06670949 0.11954016 0.012655293
-0.06952809 -0.04112949 0.1356238 0.017081032 0.05914471 -0.10511752 -0.090891704 -0.03787026
0.0118738655 0.07600208 -0.0075572813 0.06408933 -0.15066767 -0.04720205 -0.12691855 0.07739227
0.0057092775 -0.051388938 -0.08944547 -0.0015869153 0.046719786 0.07073685 0.044015635 -0.022598742
-0.08239669 0.08176256 0.01621447 0.0050798403 -0.0040736096 0.026392767 -0.05706055 -0.05700511
-0.016971735 0.05756466 -0.03641201 0.0826084 -0.06606282 -0.033938527 -0.0202034 -0.00693822
0.01955988 0.09762954 -0.06287966 0.042595483 0.085934676 0.004062004 0.10847484 0.047712106
-0.040398452 -0.0043027475 0.0901673 0.06388373 0.03427531 0.08251133 -0.0688399 -0.06418965
-0.0017902105 -0.056385197 0.12914382 0.040749896 -0.035588406 0.0074377987 -0.0015602343 0.049930144
0.040592756 -0.012280735 0.036129598 0.060503695 -0.07124365 0.048957057 -0.020199724 -0.060039077
0.11413658 -0.056050874 0.06614542 0.059090447 0.02846824 0.056550913 -0.01498222 -0.024475357
0.048193853 0.030202268 -0.02201353 0.014507931 -0.036443204 0.014758871 -0.04292854 0.030071935
-0.089975156 0.0071962136 -0.14664114 -0.0032134345 0.06815618 -0.065478 -0.10435332 -0.045244306
0.029085107 0.055292923 0.10801155 0.09495923 -0.05603883 0.026760932 -0.08058073 -0.10894002
00000000: e49e b03d 9a32 293d 2aa3 2abd 5458 8cbd
00000010: f9a6 7a3d 2068 b7bd 2828 82bd b780 c23c
00000020: a8f7 dcbd d415 e63c 7f8b ac3d 2553 53bd
00000030: 65b9 4e3c 18fe a5bd 74ac 123d 06f8 b9bd
00000040: b2e0 2e3d bf33 a73d c29e 01bd a8c9 523d
00000050: 362f b83d bcb9 62bd b486 57bd ba7f 5abd
00000060: 20fe 283b 94ee 5a3b 8ccd a4bd e128 cbbd
00000070: b226 6c3d fe5d 53bd 3990 c9bd 3e05 4fbc
00000080: fbf8 343d 1e6b 9abc 94b9 093d 0c21 723d
00000090: 4fa4 0cbe a6a0 30bd 20c6 b4bc ae5d 5b3d
000000a0: 863e 84bd 67f2 99bd 6fa2 b7bd 3f08 a63d
000000b0: a063 33bd bcba b3bd 432e 79bd c178 a33c
000000c0: d65d 923d 282f 083d c820 c7bd 4164 ab3c
000000d0: c73e babd fef3 86bd 1dda 6fbd 323b 9ebd
000000e0: cfaa 913d 46f2 23bd 8396 f1bd 74d2 f93c
000000f0: 9583 263c 10d5 08bd f7f2 8a3b 9311 c63c
00000100: cb46 ccbd def6 d6bb b805 183d ac10 03bd
00000110: cce0 52bd 7a97 683c ccdc 36ba 77fe 5dbd
00000120: fbd4 d9bc bf9d 17bc e412 bcbd dcce 93bd
00000130: e097 4a3b a8c6 693c f0d5 ccbd 6a3a 533d
00000140: 46ce c6bd 02a5 4abc cc78 8e3c ac87 aabc
00000150: c2b2 92bc f9c6 dabb 6b3d 693d 2552 abbd
00000160: 4c0f b53d 286a 443d 7006 59bd b3c4 063d
00000170: ba5a d4bb 44d4 ffbc aaa8 b43d 3fa3 eabc
00000180: 8c82 813d 0325 82bc 05e4 6dbc a4a7 473d
00000190: bf39 23be de4d 2c3d e60c ab3d aa09 4b3d
000001a0: 7334 45bd 5682 22bc 802e e23d cf94 d6bd
000001b0: 424b 58bd 4122 03bc 7da8 263c 5660 723d
000001c0: d884 c33d 7ab4 133c b03f d7bc 2a16 52bc
000001d0: 5b08 803d f292 a9bd 19c5 243e a5ed 01bd
000001e0: 870a f2bb 027e b2bd 9cf5 03be 542f 9cbb
000001f0: b001 8cbd fbbf ab3d 1ef5 1dbd a0b8 0bbc
00000200: 9a0f c1bd 6be2 87bc a178 983b 9a10 6fbc
00000210: c96b fe3d 43a2 983d 07aa 33be a158 1bbd
00000220: 54a0 a5bb 2748 b53d 2f4d 0dbd d2db 2bbd
00000230: 5d15 f7bc bd83 4e3d a54b bc3c f4e7 bfbd
00000240: 8abb fcba c555 15bd 5e71 dfbb 282e c23c
00000250: 7fbe dd3c fc9e 88bd 79d1 f43d 2558 4f3c
00000260: be64 8ebd 6577 28bd f7e0 0a3e 85ed 8b3c
00000270: b941 723d db47 d7bd 6e25 babd d91d 1bbd
00000280: 9a8a 423c fba6 9b3d 12a3 f7bb 4441 833d
00000290: a048 1abe f056 41bd f0f6 01be d77f 9e3d
000002a0: e414 bb3b 357d 52bd 302f b7bd 0b00 d0ba
000002b0: 3f5d 3f3d 7bde 903d bd49 343d ff20 b9bc
000002c0: 99bf a8bd 2173 a73d 35d4 843c ca74 a63b
000002d0: ea7b 85bb a535 d83c 53b8 69bd 317e 69bd
000002e0: 4f08 8bbc ecc8 6b3d c324 15bd 982e a93d
000002f0: f24b 87bd 2003 0bbd 9a81 a5bc 025a e3bb
00000300: 0b3c a03c fff1 c73d 0dc7 80bd 9a78 2e3d
00000310: 85fe af3d 8f1a 853b 0f28 de3d c56d 433d
00000320: d978 25bd 10fe 8cbb a2a9 b83d 79d5 823d
00000330: 4464 0c3d b3fb a83d effb 8cbd dd75 83bd
00000340: 7fa5 eaba 2af4 66bd 473e 043e 5de9 263d
00000350: 26c5 11bd c7b8 f33b c780 ccba 8d83 4c3d
00000360: 9744 263d 2335 49bc a1fc 133d b9d2 773d
00000370: 31e8 91bd 3287 483d e479 a5bc 89eb 75bd
00000380: 70c0 e93d 9a95 65bd 4077 873d d308 723d
00000390: 3a36 e93c eea1 673d fc77 75bc 8b80 c8bc
000003a0: eb66 453d bf6a f73c b855 b4bc acb2 6d3c
000003b0: 7845 15bd 31cf 713c d6d5 2fbd 6b59 f63c
000003c0: e544 b8bd 37ce eb3b 1829 16be 7c98 52bb
000003d0: 7895 8b3d 5419 86bd 32b7 d5bd 1852 39bd
000003e0: e443 ee3c d57a 623d 2935 dd3d fc79 c23d
000003f0: f988 65bd be39 db3c 8307 a5bd f21b dfbd

sequential/conv2d_2/Conv2D_bias f4 [32]
0.024722472 -0.0024654116 0.07697537 0.07411408 0.0010507698 0.083548084 0.091024265 0.047615826
0.04616518 0.02619601 0.08714512 0.09349049 0.05987637 -0.046448614 -0.051424813 0.13066171
0.031557206 -0.027442979 -0.031445872 0.07338754 0.084104255 0.033383362 -0.018639438 0.051587034
0.074284315 -0.005262214 0.025143718 -0.09200884 0.1780083 0.06296163 0.010670169 0.023349956
00000000: c886 ca3c be92 21bb 43a5 9d3d 1fc9 973d
00000010: fcb9 893a 421b ab3d ee6a ba3d d008 433d
00000020: b317 3d3d 0499 d63c 2479 b23d f177 bf3d
00000030: ed40 753d e740 3ebd d3a2 52bd 2fcc 053e
00000040: 2142 013d 19d0 e0bc 63cd 00bd 354c 963d
00000050: da3e ac3d febc 083d bcb1 98bc ed4c 533d
00000060: 6022 983d a76e acbb 33fa cd3c 216f bcbd
00000070: cf47 363e 07f2 803d efd1 2e3c 6848 bf3c

sequential/dense/MatMul/ReadVariableOp/transpose f4 [128, 32]
0.07614605 0.09472614 -0.07322189 -0.006051912 -0.06287315 0.15030135 -0.2502043 0.08771237
-0.04922581 0.13952525 -0.14020145 -0.01682573 0.054697916 -0.051585943 -0.11180073 0.065592535
0.028164865 0.13736612 -0.122769654 0.024880117 0.20386548 -0.0983685 0.104421884 -0.05593122
-0.006099964 -0.06660104 0.11766988 -0.09477315 -0.09201275 -0.14200178 -0.09222466 0.11308332
0.033610947 -0.17648281 -0.18414538 0.03826198 -0.021747649 0.13156767 -0.0801911 0.1550233
-0.06877131 -0.027137877 -0.08727494 0.15709482 -0.11484067 -0.16035976 -0.06332149 -0.12509058
-0.107188985 -0.10104482 -0.07397974 -0.17051256 0.078398146 0.09561053 -0.065060765 0.008503664
-0.17426507 0.0054409765 -0.20269592 -0.20408022 -0.0047099344 0.09907037 0.05586221 -0.046264514
0.047243576 0.090342484 0.071886085 0.14560275 -0.07523214 -0.18909064 -0.098161474 0.12739027
-0.12153772 -0.082570754 0.16099052 -0.08155208 -0.24570009 -0.17539099 0.176992 -0.08517164
-0.040487755 -0.07055013 0.048355985 0.17743672 0.04360376 0.086628124 0.11378139 0.05037549
-0.1730254 0.04871686 0.017378928 -0.10741328 -0.13279071 -0.14887044 -0.158334 -0.18413913
-0.031161856 0.039024536 -0.08682484 -0.26150966 0.0042103156 0.15681751 0.16525675 -0.001430836
-0.2684561 -0.102622576 -0.18389632 0.10528083 -0.19318031 -0.18981807 -0.124536045 0.13908695
-0.08780197 0.026062274 -0.018716484 -0.12904032 -0.111282155 -0.007256064 0.008651848 -0.2902306
0.14081207 -0.12627265 0.16100375 -0.092736825 0.047547616 0.1090519 -0.21865396 0.07404475
0.10095154 -0.14194973 0.03484533 -0.03234665 -0.20945343 0.035092257 0.034178652 0.13081001
-0.097984575 -0.042810697 0.09444191 0.047468677 0.08707275 0.076279014 -0.076874435 -0.16523793
-0.076824516 0.1296208 0.14644744 0.09728216 -0.1235663 -0.2761798 -0.010248729 -0.25624895
0.1532699 -0.053917706 -0.073814616 -0.0940698 0.14935586 0.0043127006 -0.21230198 -0.23859228
0.009920466 0.0049276887 -0.097610705 0.015950853 -0.12710387 -0.019717764 -0.051266283 -0.14346941
-0.03193472 0.10771119 0.06591227 0.11436509 -0.039721042 0.07803381 0.06750841 -0.14376341
-0.1397448 -0.06694671 0.011761753 0.16210514 0.03796679 -0.19917731 0.09290114 -0.11497223
-0.020500593 0.017838959 0.057745617 0.0512273 -0.052662022 -0.048211187 0.0063201375 0.0920386
-0.0007946868 -0.16252497 0.080011904 -0.039980046 -0.11217727 -0.18123642 -0.17132197 -0.012758496
-0.049065698 -0.15899888 -0.19364564 0.19675983 0.12935346 -0.0021318423 0.19519675 -0.12801968
0.09802912 -0.120386235 0.07422797 0.10648106 0.24906528 -0.18624943 0.23925236 0.22261626
-0.12642013 -0.022457106 -0.049968436 -0.12617527 -0.0063765724 -0.06994968 0.111492604 -0.09604786
-0.10779879 -0.08266449 0.106490806 0.004831849 -0.1439066 0.19531064 -0.0920816 -0.05745682
-0.31265387 0.14869553 -0.18354774 0.15572529 -0.076756604 -0.11866628 0.053140216 0.13081014
0.112031385 0.11828897 0.063753776 0.18070386 0.18513 -0.24052751 -0.050176553 -0.2811274
0.17573445 -0.24051867 -0.005644285 0.15589763 -0.017755242 -0.03862504 0.083251424 0.20673636
00000000: 76f2 9b3d c7ff c13d 5cf5 95bd 1e4f c6bb
00000010: a3c3 80bd 99e8 193e c71a 80be 8ba2 b33d
00000020: 01a1 49bd b5df 0e3e f890 0fbe 1dd6 89bc
00000030: ec0a 603d c84b 53bd c8f7 e4bd 6155 863d
00000040: 01ba e63c b4a9 0c3e a86e fbbd 63d1 cb3c
00000050: 1dc2 503e 6d75 c9bd 24db d53d 2318 65bd
00000060: 35e2 c7bb 2066 88bd e8fc f03d 6d18 c2bd
00000070: 2e71 bcbd ea68 11be 48e0 bcbd 3a98 e73d
00000080: a2ab 093d e9b7 34be 9b90 3cbe 98b8 1c3d
00000090: 2028 b2bc adb9 063e 3b3b a4bd 6ebe 1e3e
000000a0: f9d7 8cbd 4150 debc 34bd b2bd 77dd 203e
000000b0: 9631 ebbd 5935 24be b3ae 81bd bf17 00be
000000c0: e685 dbbd 96f0 cebd b182 97bd d89a 2ebe
000000d0: 358f a03d 74cf c33d 943e 85bd f452 0b3c
000000e0: 8b72 32be 384a b23b 858f 4fbe 68fa 50be
000000f0: cb55 9abb 68e5 ca3d c6cf 643d dc7f 3dbd
00000100: 7b82 413d 7b05 b93d 0339 933d e318 153e
00000110: 4f13 9abd faa0 41be e208 c9bd 9872 023e
00000120: c5e8 f8bd db1a a9bd b3da 243e c704 a7bd
00000130: ce98 7bbe b299 33be 643d 353e 786e aebd
00000140: 7dd6 25bd 967c 90bd ed10 463d f9b1 353e
00000150: db99 323d 166a b13d 3806 e93d 8856 4e3d
00000160: 922d 31be 558b 473d 415e 8e3c 7efb dbbd
00000170: 4afa 07be 7e71 18be 4f22 22be f88e 3cbe
00000180: 2647 ffbc 31d8 1f3d 39d1 b1bd 98e4 85be
00000190: b0f6 893b c594 203e 1139 293e e48a bbba
000001a0: 1473 89be c92b d2bd 514f 3cbe 7a9d d73d
000001b0: 0fd1 45be ab5f 42be c10c ffbd cf6c 0e3e
000001c0: 85d1 b3bd 8d80 d53c 5053 99bc 2523 04be
000001d0: e6e7 e3bd 47c4 edbb 7bc0 0d3c 1b99 94be
000001e0: 0a31 103e 9e4d 01be 2bde 243e ceec bdbd
000001f0: 4ac1 423d 9a56 df3d d3e6 5fbe c6a4 973d
00000200: aebf ce3d 455b 11be fab9 0e3d ec7d 04bd
00000210: f67a 56be e6bc 0f3d eafe 0b3d 0ff3 053e
00000220: 23ac c8bd 455a 2fbd c36a c13d 846e 423d
00000230: 3353 b23d 2c38 9c3d 5870 9dbd 2234 29be
00000240: 2c56 9dbd 51bb 043e 51f6 153e de3b c73d
00000250: 5410 fdbd 7067 8dbe 49ea 27bc 1033 83be
00000260: c9f2 1c3e d0d8 5cbd 1e2c 97bd aba7 c0bd
00000270: bef0 183e 8e51 8d3b b165 59be 8951 74be
00000280: 7389 223c 7378 a13b 1fe8 c7bd 5dab 823c
00000290: 8427 02be 2687 a1bc 98fc 51bd a5e9 12be
000002a0: fbcd 02bd af97 dc3d 03fd 863d 3f38 ea3d
000002b0: 88b2 22bd 31d0 9f3d d941 8a3d b736 13be
000002c0: 4319 0fbe 5b1b 89bd 5eb4 403c e4fe 253e
000002d0: 1183 1b3d 23f5 4bbe f442 be3d 8f76 ebbd
000002e0: dcf0 a7bc 0223 923c ab86 6c3d b8d3 513d
000002f0: 22b4 57bd 1879 45bd 2819 cf3b bc7e bc3d
00000300: 8752 50ba f26c 26be 48dd a33d 1ec2 23bd
00000310: 32bd e5bd 0a96 39be 076f 2fbe 0309 51bc
00000320: 1df9 48bd 9ad0 22be 0b4b 46be 697b 493e
00000330: 3c75 043e 61b6 0bbb a8e1 473e 9717 03be
00000340: 7ec3 c83d 0f8d f6bd d504 983d be12 da3d
00000350: f80a 7f3e 2cb8 3ebe 92fe 743e 84f5 633e
00000360: 4774 01be f7f7 b7bc b4ab 4cbd 1734 01be
00000370: 91f2 d0bb c741 8fbd 3c56 e43d beb4 c4bd
00000380: 9dc5 dcbd 004c a9bd da17 da3d 7d54 9e3b
00000390: 405c 13be 83ff 473e 4795 bcbd d857 6bbd
000003a0: 2b14 a0be a443 183e f0f3 3bbe 7376 1f3e
000003b0: 9132 9dbd 4e07 f3bd 8ea9 593d 18f3 053e
000003c0: b670 e53d 7d41 f23d 5791 823d 6f0a 393e
000003d0: b892 3d3e d84c 76be ee85 4dbd eeef 8fbe
000003e0: bbf3 333e 874a 76be b2f3 b8bb a1a3 1f3e
000003f0: 7173 91bc 4a35 1ebd b97f aa3d b2b2 533e

sequential/dense/MatMul_bias f4 [128]
0.10398507 -0.045057464 -0.0073831845 0.10446635 0.13217539 0.17543359 0.09264465 0.08129821
-0.0055337553 -0.022141866 0.10542989 -0.0150676025 -0.11975974 -0.06346042 0.07196262 0.05155647
-0.07844726 -0.02780013 0.13168299 0.101562396 -0.057460144 -0.029114481 -0.07651309 0.19331607
-0.07311752 -0.047686357 -0.055096995 0.044336468 -0.08025193 -0.12366399 -0.016584337 0.030989883
0.10891716 0.07615553 0.1216843 -0.08937074 0.10049589 -0.022786925 -0.0032274935 0.09025183
0.09333729 0.12941816 0.10037592 -0.013600243 -0.07860937 0.08164211 -0.011779034 -0.10805548
-0.11866903 -0.08269332 0.06718014 0.18474972 0.118186936 0.14350644 0.0965844 -0.013378357
-0.021714302 -0.06371022 -0.040575944 0.105730526 0.039038822 0.17936634 -0.03926003 0.13626085
0.088767804 0.0006738453 0.099531196 0.12672251 0.056243587 -0.05813784 -0.080278896 0.12713891
-0.14110386 -0.0503627 0.1190011 -0.17948186 0.088014476 0.043657307 0.079603106 0.07743745
-0.08775216 0.04539683 0.16550346 -0.081755474 -0.033461656 0.10716876 0.015661482 -0.17334083
0.046353802 -0.09899022 0.0011401636 0.06852795 0.12664022 -0.07174899 -0.013806248 -0.1286102
0.10976235 -0.051089063 0.04020699 -0.04309629 -0.06259112 0.07191783 0.08455336 0.018149499
0.030896362 0.06616278 -0.055551905 0.010664488 -0.0047880528 -0.07494625 -0.04871752 0.08135637
0.11369704 0.08913462 0.028836882 0.09379102 0.16513708 0.0016269595 0.1523708 0.043741763
-0.04736994 0.13469614 0.077007845 0.0797971 -0.11158507 0.10471616 0.0213041 0.21175474
00000000: 20f6 d43d 2d8e 38bd a4ee f1bb 74f2 d53d
00000010: fc58 073e dda4 333e 7abc bd3d ad7f a63d
00000020: 8154 b5bb dc62 b5bc a0eb d73d 1bde 76bc
00000030: 9844 f5bd 89f7 81bd 2361 933d e12c 533d
00000040: f5a8 a0bd 19bd e3bc e8d7 063e f2ff cf3d
00000050: 545b 6bbd 7e81 eebc e5b2 9cbd a6f4 453e
00000060: a3be 95bd c552 43bd 63ad 61bd 289a 353d
00000070: 205b a4bd 8c43 fdbd e0db 87bc 7fde fd3c
00000080: f60f df3d 6ef7 9b3d 9e35 f93d 0208 b7bd
00000090: cad0 cd3d a5ab babc 5b84 53bb f4d5 b83d
000000a0: 9f27 bf3d 3286 043e e491 cd3d 8ed3 5ebc
000000b0: f3fd a0bd fb33 a73d d9fc 40bc 314c ddbd
000000c0: c008 f3bd 1e5b a9bd be95 893d 082f 3d3e
000000d0: fe0b f23d 5af3 123e 0bce c53d e530 5bbc
000000e0: 31e2 b1bc 817a 82bd f632 26bd 3f89 d83d
000000f0: 2ce7 1f3d cfab 373e 20cf 20bd f787 0b3e
00000100: e5cb b53d fea4 303a 03d7 cb3d 8cc3 013e
00000110: ad5f 663d f221 6ebd 4369 a4bd b430 023e
00000120: 887d 10be 1e49 4ebd d9b6 f33d 18ca 37be
00000130: ef40 b43d 01d2 323d f406 a33d 8797 9e3d
00000140: 68b7 b3bd 07f2 393d bd79 293e 6a6f a7bd
00000150: 170f 09bd 4b7b db3d 824c 803c 4280 31be
00000160: 7cdd 3d3d 62bb cabd 8b71 953a 6258 8c3d
00000170: f9ad 013e 22f1 92bd 9a33 62bc 64b2 03be
00000180: 15cb e03d c442 51bd 16b0 243d bc85 30bd
00000190: c62f 80bd a849 933d 502a ad3d 42ae 943c
000001a0: 5e1a fd3c 5a80 873d 658a 63bd 1bba 2e3c
000001b0: 19e5 9cbb 6b7d 99bd 068c 47bd 2b9e a63d
000001c0: fed9 e83d 368c b63d 533b ec3c 8215 c03d
000001d0: b219 293e b43f d53a 1707 1c3e 902a 333d
000001e0: fb06 42bd c9ed 093e 4ab6 9d3d a96c a33d
000001f0: b786 e4bd 6d75 d63d f085 ae3c 3cd6 583e

sequential/dense_1/MatMul/ReadVariableOp/transpose f4 [64, 128]
-0.14087084 -0.057750434 -0.11749874 -0.032183196 -0.0046453923 -0.012288426 0.12861298 -0.16755982
0.15834595 -0.1144127 0.1085584 0.0031848892 0.14334255 -0.166333 -0.08952543 0.11076463
-0.04382763 -0.056854006 0.046801016 0.08430911 0.013424824 0.069751404 0.12638572 0.10927614
0.10510921 0.12066405 -0.16634718 -0.1150736 -0.027897889 0.0020388686 -0.16379324 0.0059760343
0.16145797 -0.12568244 0.05875407 -0.079019845 0.093364276 0.08742827 0.14792542 0.047019374
0.16940218 -0.14099082 0.038431935 -0.017423306 0.082098044 0.033562552 0.1479511 0.01978447
-0.17100109 -0.059130795 0.0145479515 -0.11326902 -0.17312084 -0.13341773 0.15914945 -0.08506571
0.16065313 0.14430758 -0.052592438 -0.10193983 -0.022121068 -0.11212664 -0.054334927 -0.056814656
-0.04101197 -0.15162908 -0.16087258 0.05073893 0.018564729 0.12025879 -0.08677901 0.0628497
0.09182003 0.09203015 -0.08318038 -0.09911926 -0.011023946 0.0724596 0.10537832 0.043534327
0.17638485 -0.04644889 -0.0023113233 0.15931132 -0.1011344 -0.025776364 0.06366866 -0.0035021543
-0.10459639 0.083106585 0.17707193 -0.1447299 -0.14902908 0.16086942 0.055304993 -0.10667444
-0.07201707 -0.14727142 -0.15681437 0.058372296 -0.020187942 -0.03921322 -0.04525741 -0.13689633
-0.17182977 0.09961697 0.10696357 -0.042032406 0.091425486 -0.12905535 0.093488514 -0.042427313
0.18965718 0.14475243 0.06012817 0.13963477 -0.033924825 -0.13674638 -0.04876752 -0.13628693
-0.122141406 -0.14944848 0.112748876 -0.026597949 0.07538757 0.038322132 -0.12118313 -0.14214884
0.20332658 -0.14666529 -0.031004822 -0.0048889257 -0.13567781 0.12633993 -0.06962916 -0.13408364
-0.12406372 -0.07183912 0.0375997 -0.044291552 0.13379876 -0.09343213 -0.19573852 0.03991317
-0.17640878 -0.10191195 -0.0006999224 -0.11030603 -0.11724857 0.031219069 -0.022022642 0.1449335
-0.10277519 -0.044717193 -0.14774121 -0.089664824 0.135571 -0.0041962033 -0.13292192 -0.0026269152
-0.14895588 -0.08058755 0.05197775 -0.053250115 -0.045397397 0.054395568 0.15545617 -0.03753155
0.18229043 -0.14597328 -0.03683746 0.033670153 -0.0042802882 -0.07530927 0.11271685 -0.12824471
0.07218006 -0.026867008 0.083796635 0.04874357 -0.19971268 -0.0025027674 -0.11448015 -0.1411009
-0.06563356 0.13759285 -0.047580335 -0.1733439 0.07739254 0.02726434 0.08532008 -0.09775436
-0.0694899 -0.038842056 -0.1770963 -0.14941269 -0.018518327 -0.16716447 -0.094488055 0.1310222
0.14971605 -0.04873317 -0.123897895 0.10355454 -0.17188872 0.11231426 0.1178263 0.09577915
0.13881916 0.15779845 0.16661051 0.076905794 0.011806574 0.07104791 0.14343868 -0.17254552
-0.009035564 -0.110603385 -0.07237474 -0.07981048 0.073023476 0.024958787 0.103193186 0.12858453
0.046316966 -0.11930189 -0.15945494 0.09624486 0.026590519 -0.01495901 0.06312103 -0.016073974
0.017654553 0.11021172 0.1453584 0.20215133 0.13239403 0.12499306 0.09810622 -0.11876831
-0.015830077 -0.0716595 -0.1394701 -0.043492366 -0.18562397 -0.009693395 -0.03956705 0.012186833
-0.18968652 -0.115857676 -0.12945184 -0.031815536 0.15249696 -0.1620649 -0.019407142 -0.16555576
00000000: 7240 10be b88b 6cbd 2ea3 f0bd 87d2 03bd
00000010: 6038 98bb 6555 49bc 1fb3 033e cd94 2bbe
00000020: 7125 223e 3551 eabd de53 de3d 93b9 503b
00000030: 64c8 123e 3353 2abe 1c59 b7bd 91d8 e23d
00000040: 9a84 33bd bfdf 68bd 6cb2 3f3d 41aa ac3d
00000050: cbf3 5b3c d3d9 8e3d 426b 013e 2bcc df3d
00000060: 7f43 d73d b71e f73d ea56 2abe b5ab ebbd
00000070: 1d8a e4bc 8a9e 053b 6ab9 27be 9cd2 c33b
00000080: 3d55 253e e6b2 00be 1ca8 703d 28d5 a1bd
00000090: c535 bf3d 980d b33d c379 173e 6397 403d
000000a0: c477 2d3e e65f 10be ce6a 1d3d 52bb 8ebc
000000b0: 0523 a83d e378 093d 7e80 173e 0a13 a23c
000000c0: e91a 2fbe 2233 72bd 885a 6e3c 97f9 e7bd
000000d0: 9746 31be a89e 08be 13f8 223e ee36 aebd
000000e0: 4182 243e 5ec5 133e 2b6b 57bd d4c5 d0bd
000000f0: 3e37 b5bc a7a2 e5bd 4d8e 5ebd 7cb6 68bd
00000100: 2bfc 27bd a744 1bbe c8bb 24be a0d3 4f3d
00000110: 0f15 983c 3e4a f63d 32b9 b1bd 58b7 803d
00000120: 240c bc3d 4e7a bc3d 7a5a aabd 0aff cabd
00000130: c89d 34bc b365 943d 97d0 d73d 0d51 323d
00000140: 3b9e 343e 3141 3ebd 9279 17bb 8222 233e
00000150: 8d1f cfbd f428 d3bc b764 823d 6684 65bb
00000160: a236 d6bd c933 aa3d 5852 353e 1334 14be
00000170: 149b 18be f4ba 243e 7d87 623d 2178 dabd
00000180: b07d 93bd 52ce 16be f293 20be ca17 6f3d
00000190: 2f61 a5bc 0b9e 20bd d55f 39bd 8d2e 0cbe
000001a0: 25f4 2fbe fb03 cc3d b70f db3d 2c2a 2cbd
000001b0: 493d bb3d 1627 04be e876 bf3d 43c8 2dbd
000001c0: 7e35 423e fb39 143e f548 763d 6bfc 0e3e
000001d0: c2f4 0abd 3e07 0cbe 73c0 47bd cd8e 0bbe
000001e0: 4625 fabd 0609 19be e2e8 e63d f1e3 d9bc
000001f0: cc64 9a3d abf7 1c3d dc2e f8bd 778f 11be
00000200: d834 503e 6d2f 16be d3fd fdbc 4833 a0bb
00000210: 20ef 0abe 415f 013e bc99 8ebd 394d 09be
00000220: 1f15 febd 6320 93bd 2502 1a3d 0f6b 35bd
00000230: 8b02 093e 5859 bfbd ae6f 48be fe7b 233d
00000240: 81a4 34be 36b7 d0bd ff7a 37ba 21e8 e1bd
00000250: 0520 f0bd 22bf ff3c d468 b4bc 7369 143e
00000260: cc7b d2bd 6029 37bd 7949 17be 31a2 b7bd
00000270: 20d3 0a3e 4e80 89bb af1c 08be 5328 2cbb
00000280: e487 18be 160b a5bd 9fe6 543d cb1c 5abd
00000290: 9ff2 39bd e3cd 5e3d e72f 1f3e afba 19bd
000002a0: 58aa 3a3e 057a 15be e0e2 16bd b7e9 093d
000002b0: a941 8cbb bf3b 9abd 18d8 e63d 9552 03be
000002c0: 24d3 933d 3318 dcbc 929d ab3d 56a7 473d
000002d0: 7b81 4cbe 7805 24bb 9274 eabd c17c 10be
000002e0: e36a 86bd 24e5 0c3e 99e3 42bd 1081 31be
000002f0: fb7f 9e3d 7759 df3c 4bbc ae3d 7033 c8bd
00000300: b850 8ebd d918 1fbd bc58 35be a4ff 18be
00000310: bfb3 97bc 2a2d 2bbe f482 c1bd af2a 063e
00000320: 2a4f 193e 6f9c 47bd 2ebe fdbd 6714 d43d
00000330: 9903 30be 0505 e63d ea4e f13d dc27 c43d
00000340: 9c26 0e3e eb95 213e f29b 2a3e c980 9d3d
00000350: 5c70 413c 9181 913d 97e1 123e c6af 30be
00000360: e709 14bc 0784 e2bd 3539 94bd ad73 a3bd
00000370: 558d 953d 5f76 cc3c f356 d33d aaab 033e
00000380: dcb6 3d3d 8d54 f4bd 2848 23be 061c c53d
00000390: 5cd4 d93c a316 75bc 9945 813d 91ad 83bc
000003a0: 48a0 903c afb6 e13d d5d8 143e c200 4f3e
000003b0: 4d92 073e 5dfc ff3d eaeb c83d cd3c f3bd
000003c0: 14ae 81bc 37c2 92bd 40d1 0ebe 0d25 32bd
000003d0: 3614 3ebe 0cd1 1ebc 0f11 22bd 48ab 473c
000003e0: 2f3d 42be ca46 edbd 068f 04be 0251 02bd
000003f0: 2a28 1c3e 57f4 25be bafb 9ebc 7387 29be

sequential/dense_1/MatMul_bias f4 [64]
-0.0029900274 0.11446901 0.22390977 -0.02326562 0.19155376 -0.15883127 0.0986426 -0.06395138
0.23208258 -0.061639063 -0.011784754 -0.053961296 -0.027306834 0.016252829 0.2519568 0.21170993
-0.06532264 -0.20501648 -0.10205123 -0.046630368 -0.10177449 -0.1767199 -0.062095627 0.068799324
-0.17416717 -0.0058712265 0.20929234 0.10349409 0.21332428 0.012626218 -0.022099825 0.12650245
0.19567403 -0.16005895 0.13905609 -0.041959018 0.22435798 0.20300417 0.2802762 0.0067652687
-0.080738574 0.2123051 0.22044612 -0.016377589 0.19221382 0.029793333 0.20813979 0.19683954
-0.117449336 -0.052391455 -0.057141457 0.03281586 -0.13438408 -0.028731922 0.21497534 -0.18643135
-0.1659961 0.15211408 -0.20152733 -0.15278669 -0.028208507 0.18835692 0.18687813 0.21484323
00000000: 56f4 43bb ba6e ea3d 9a48 653e 8b97 bebc
00000010: ab26 443e aaa4 22be 2205 ca3d f1f8 82bd
00000020: 0ea7 6d3e 3e79 7cbd d714 41bc 8506 5dbd
00000030: 95b2 dfbc a724 853c 7b00 813e 7dca 583e
00000040: e0c7 85bd d7ef 51be 3c00 d1bd 7cff 3ebd
00000050: 256f d0bd 10f6 34be fc57 7ebd a9e6 8c3d
00000060: e158 32be 6b63 c0bb bb50 563e b6f4 d33d
00000070: ae71 5a3e 32de 4e3c b10a b5bc dc89 013e
00000080: c65e 483e 7ee6 23be b864 0e3e 38dd 2bbd
00000090: 19be 653e 53e0 4f3e 5d80 8f3e 30af dd3b
000000a0: 445a a5bd 8266 593e a1bc 613e 4b2a 86bc
000000b0: b3d3 443e 2611 f43c 9922 553e 4e90 493e
000000c0: 4789 f0bd 6c98 56bd 290d 6abd ec69 063d
000000d0: fb9b 09be 355f ebbc 7f22 5c3e dce7 3ebe
000000e0: e2fa 29be cbc3 1b3e 2e5d 4ebe 1d74 1cbe
000000f0: 8715 e7bc a3e0 403e fb5c 3f3e ddff 5b3e

sequential/dense_2/MatMul/ReadVariableOp/transpose f4 [2, 64]
0.050168004 -0.2215902 -0.11337574 -0.06661465 -0.14532554 -0.1458437 0.094580926 0.18479556
-0.3105708 -0.079522334 -0.015946291 -0.24652156 -0.23667775 0.10151227 -0.21218106 0.22081098
-0.22838606 0.15140766 0.11183735 0.2317007 -0.05495164 0.11409674 0.074040994 -0.11862056
0.013158642 -0.054750286 -0.057607595 -0.14814843 0.2846228 -0.0529591 0.028743895 0.08720663
0.23248269 -0.044760358 0.1359707 -0.2733988 0.012454913 0.19455552 -0.32720703 0.123105645
-0.10414907 -0.22285336 0.35274956 -0.2819004 -0.12712078 -0.07311777 -0.30517662 -0.0797608
0.14626428 -0.061269652 -0.27982605 0.045553863 -0.08051526 0.22095117 -0.2849826 -0.15299048
0.033231564 0.20897286 0.055663876 0.06352657 0.1607196 0.2756191 0.27389875 0.34699503
0.038465075 0.03146616 -0.2823856 -0.17764552 -0.12199548 0.0070727374 -0.039987247 0.09954818
-0.071860805 -0.20609266 0.013168475 -0.061319962 0.2846522 -0.16475156 0.36895022 0.29003286
-0.049966354 -0.12866986 0.054342132 -0.14815177 0.12104384 0.08835596 0.08216752 0.011174984
-0.14207962 0.21244404 -0.3239343 -0.07406751 0.2811633 -0.19056875 -0.06377016 -0.1728717
-0.31621972 -0.15807992 0.07788814 -0.2810008 -0.34269202 -0.29995093 0.20243368 0.027120741
-0.04549309 -0.28029293 -0.14338388 -0.25141528 0.13153207 0.05084065 -0.17891558 0.34930995
-0.081327245 -0.118407816 -0.21897876 0.007217362 -0.009420391 0.15294711 -0.053517368 0.13944331
0.12743625 0.17826425 0.090533376 -0.21128358 -0.24274586 -0.32146475 -0.0932259 0.08412583
00000000: f77c 4d3d 8be8 62be 8a31 e8bd 436d 88bd
00000010: 38d0 14be 0d58 15be a5b3 c13d 0c3b 3d3e
00000020: 2303 9fbe 9bdc a2bd cca1 82bc 2670 7cbe
00000030: a75b 72be aae5 cf3d fe45 59be 461c 623e
00000040: 09de 69be 9c0a 1b3e fb0a e53d f342 6d3e
00000050: f914 61bd 8dab e93d cea2 973d 56ef f2bd
00000060: 5897 573c d641 60bd f1f5 6bbd 39b4 17be
00000070: 14ba 913e a4eb 58bd 5178 eb3c 6499 b23d
00000080: f10f 6e3e a356 37bd e73b 0b3e edfa 8bbe
00000090: b10f 4c3c 9039 473e ae87 a7be d01e fc3d
000000a0: 1c4c d5bd ac33 64be 979b b43e 4055 90be
000000b0: f32b 02be c5be 95bd 1c40 9cbe a159 a3bd
000000c0: 4ec6 153e e3f5 7abd 5c45 8fbe b096 3a3d
000000d0: 2fe5 a4bd 0641 623e 3de9 91be 89a9 1cbe
000000e0: d21d 083d fbfc 553e ceff 633d 381a 823d
000000f0: ae93 243e f21d 8d3e 753c 8c3e 55a9 b13e
00000100: 8e8d 1d3d a9e2 003d d894 90be b5e8 35be
00000110: c4d8 f9bd 6cc2 e73b abc9 23bd ebdf cb3d
00000120: c22b 93bd f409 53be 96c0 573c a42a 7bbd
00000130: efbd 913e a2b4 28be 0be7 bc3e 307f 943e
00000140: 85a9 4cbd 08c2 03be db95 5e3d 19b5 17be
00000150: d5e5 f73d f8f3 b43d 7247 a83d 4817 373c
00000160: 527d 11be ee8a 593e b7da a5be b5b0 97bd
00000170: a3f4 8f3e 7424 43be ee99 82bd 4705 31be
00000180: 8de7 a1be b4df 21be d183 9f3d 56df 8fbe
00000190: 5475 afbe 2b93 99be c64a 4f3e 512c de3c
000001a0: f656 3abd 8e82 8fbe 39d3 12be 81b9 80be
000001b0: 58b0 063e 493e 503d a535 37be c1d8 b23e
000001c0: e68e a6bd cc7f f2bd f83b 60be 9f7f ec3b
000001d0: fc57 1abc 2b9e 1c3e 0735 5bbd 3aca 0e3e
000001e0: a67e 023e e78a 363e 9069 b93d b95a 58be
000001f0: 5f92 78be 0797 a4be 38ed bebd 2a4a ac3d

sequential/dense_2/MatMul_bias f4 [2]
-0.0155632375 0.04389387
00000000: f3fc 7ebc 0fca 333d
